checkpoints/autoencoder_4000-3-7-7-3-16-32-3-0.0013437.pt (torch, 246850 bytes, 12 tensors)

encoder.0.weight f4 [16, 3, 3, 3]
000000 b3 8c 14 3e 03 ec 86 3d 51 76 7e bd 6f 95 a3 3d
       0.14506797 0.065879844 -0.062124554 0.079874866
000010 2c 58 5e 3e ce 33 9b 3d 49 f9 b2 3d f6 e0 67 bc
       0.21713322 0.0757824 0.087389536 -0.014152756
000020 52 3d ba 3b a0 76 72 bd 4e f0 65 bd 83 3c b8 bc
       0.0056835795 -0.05919516 -0.056137376 -0.022489792
000030 6d 3a 4c be 1d 5c 20 3c e3 4e 62 3e ea 96 23 bd
       -0.19944163 0.0097875865 0.22100405 -0.039938845
000040 84 b3 ff 39 9c 2a 29 be 19 ab 8b 3b e3 02 e0 3c
       0.0004877114 -0.1652016 0.00426234 0.027345126
000050 1c a8 6b 3d 25 7a cb bd b8 d3 37 3d a3 8e 04 3e
       0.05753337 -0.099354066 0.044879645 0.12945037
000060 b4 27 b2 3d 58 e5 35 be 3e 03 ae 3d 81 95 73 bd
       0.08698979 -0.17763269 0.08496712 -0.05946875
000070 29 3d e4 bd 39 16 8b bd cd 4f 60 bd f2 d0 67 3d
       -0.11144478 -0.06791348 -0.054763604 0.05659575
000080 fa a8 80 3e c4 6b 04 3e bf c5 06 3e 90 da e0 3d
       0.2512892 0.12931734 0.13161372 0.109791875
000090 d5 d3 ea bd 52 5c c3 bd 25 ce e0 bd 3d 8f c7 3d
       -0.11466185 -0.09539093 -0.10976819 0.097441174
0000a0 90 c5 92 3c 19 22 54 3e 2c 2a 1f 3e c7 24 66 3d
       0.01791647 0.20716132 0.15543431 0.056187417
0000b0 48 19 e7 3d 7d f4 0f 3d a2 74 01 3d d9 a2 f7 bd
       0.11284119 0.03514527 0.03160537 -0.120916076
0000c0 cf f1 07 3e bd ae 83 3b a9 20 94 3d 02 9d 0b 3e
       0.13275836 0.004018633 0.07232792 0.13634112
0000d0 cf ea 15 3e 1f fb 64 bd 25 38 86 3e 05 c0 93 3d
       0.14640354 -0.05590355 0.2621471 0.07214359
0000e0 1b e5 c7 3e ac 5a 83 bd 52 7a 75 be 72 bf 91 3e
       0.3904198 -0.06413779 -0.23972443 0.28466374
0000f0 a7 af 24 be 62 d8 41 be 9b b9 49 3e 69 c4 85 be
       -0.16082631 -0.189302 0.19699709 -0.26126412
000100 fd f4 a4 be 45 b5 a1 3b e1 bf 1a bf 8e 55 e8 be
       -0.3221816 0.004934939 -0.60449034 -0.45377773
000110 ee 28 4f bd 6e e3 01 bf 2d cb 0d bf 49 c7 94 3d
       -0.050576143 -0.50737655 -0.55388147 0.07264573
000120 dc c8 d0 be 91 f7 9b be 24 71 ab 3d bf 62 88 be
       -0.40778244 -0.30462316 0.08371189 -0.26637837
000130 91 65 08 be 74 31 70 3e 8a b9 13 be 8a d1 91 be
       -0.13319995 0.23456365 -0.14426246 -0.28480178
000140 09 15 d6 bc e8 26 8c 3d 31 3c d8 3d 12 76 26 3e
       -0.026133077 0.06843358 0.105583556 0.16255978
000150 0b 82 d5 bd 58 c7 f8 3d 17 49 0d 3e 1f de d9 bd
       -0.10425194 0.12147397 0.13797413 -0.10638069
000160 82 c3 50 3d af e6 76 3d b5 47 6d bc 98 6c 04 be
       0.0509677 0.06027859 -0.014482428 -0.1293205
000170 08 9f 2d bc 64 88 26 3d 9e 18 45 3e 53 3d d3 bd
       -0.010596998 0.040657416 0.19247672 -0.10314431
000180 15 48 ca 3c 3a 65 00 be 26 8e 1d 3d cd 95 24 be
       0.024692575 -0.12538615 0.03846564 -0.1607277
000190 2f d2 84 bd 30 f6 e3 bd 8f 37 e7 3d 01 18 53 3e
       -0.06485402 -0.11130941 0.11289894 0.20614626
0001a0 84 4a 5a be f1 e7 71 3d dc 4d a0 3d 53 06 78 bd
       -0.21317488 0.059059087 0.078273505 -0.060552906
0001b0 a0 6a 09 be 46 31 db 3c 24 4e 2f 3d 8c 36 11 bd
       -0.1341958 0.026756894 0.04279913 -0.03545241
0001c0 91 ac a5 bc f9 73 10 3d f0 7b 7e 3d 77 e2 8d 3e
       -0.020223888 0.03526685 0.062129915 0.2771184
0001d0 8e 41 d4 3c 33 2f 18 be 90 a7 85 bd 45 87 da 3d
       0.025910165 -0.14861755 -0.06526101 0.10670332
0001e0 32 91 fb bc ce 1f ab 3c eb 07 9d 3c 26 f2 12 3e
       -0.030708883 0.02088919 0.019168815 0.14350185
0001f0 d6 e5 8a 3e 36 a8 29 3e d9 af 8a be 5d 44 e9 bd
       0.27128476 0.16568074 -0.27087286 -0.113899924
000200 6d 1b f4 3d 3e de 54 be ba 17 c2 3d 4a 8a 46 bd
       0.119192936 -0.20787904 0.09477182 -0.048471726
000210 16 97 c1 3d d4 d4 5a 3e 83 fc 7d bc 39 6e 8a 3e
       0.094526455 0.2137025 -0.015502098 0.27037218
000220 ca 69 c4 3d d7 e7 14 3e 65 58 42 3c a0 40 5a 3d
       0.0959049 0.14541565 0.011861895 0.053284287
000230 00 a9 91 3a e6 aa 32 be c3 8c bf bd e8 bc 4e 3e
       0.0011112988 -0.17448005 -0.0935302 0.2018925
000240 20 6a 63 3e c0 d4 e8 3c 52 62 31 bb b6 09 5e be
       0.22208452 0.02842176 -0.002706666 -0.21683392
000250 36 8f b5 3d c3 98 b0 bd 1f 8c ba bd de 7f e8 bd
       0.08865206 -0.08622887 -0.09108757 -0.11352514
000260 04 40 e3 3d 85 f6 1d 3e 2c b4 d0 3d ca 33 00 be
       0.110961944 0.15426071 0.10190615 -0.12519756
000270 62 cd 85 be f7 b3 84 bb e2 14 ba 3d b6 e3 80 be
       -0.26133257 -0.004049774 0.09086014 -0.2517373
000280 a7 c8 71 be 78 ea 07 3e 17 17 02 3d 70 f3 2c 3e
       -0.23611699 0.13273036 0.0317603 0.16889739
000290 ba 06 03 3e 77 97 b0 3d 55 4f 0c 3d 17 4d ac 3d
       0.12795535 0.086226396 0.034255344 0.08413141
0002a0 53 5f 6c 3c de 58 79 3d ed 7c e7 3d e9 72 1d 3e
       0.014427024 0.060875766 0.113031246 0.15375866
0002b0 8e 02 71 3e 48 1d c9 3c 2c b0 96 3d 8f 56 27 3d
       0.23536131 0.024550095 0.07357821 0.040854033
0002c0 91 64 f1 bb 9b 60 89 3d 82 25 c7 bd 05 18 93 bd
       -0.007366725 0.06707879 -0.09723951 -0.07182316
0002d0 23 f7 2e 3d 65 f5 94 3d f4 3f a0 3c 54 c0 1b 3e
       0.042716157 0.07273368 0.019561745 0.15210086
0002e0 21 cc 2b bc 43 70 dc 3c ab 8a 24 be 9d d6 c2 bd
       -0.01048568 0.026909 -0.16068523 -0.095135905
0002f0 00 4b b5 bc b2 5e 13 3e 98 03 b1 bd d5 6d b4 3d
       -0.02213049 0.14391592 -0.086432636 0.08810011
000300 f8 16 bc 3d 2f 8f 49 bd 15 ee c0 3d e8 1a fe bd
       0.091840684 -0.049208816 0.094204105 -0.12407476
000310 b5 f8 0b 3e f7 f3 e9 bd 08 fd 02 3e d0 b1 09 3e
       0.13669093 -0.11423486 0.12791836 0.13446736
000320 bd 58 cb 3d 15 72 2f 3e 50 cf ab bc 59 98 14 3e
       0.09929035 0.17133363 -0.020972878 0.14511241
000330 d9 38 e4 bd 30 a3 b2 3d 93 2a 8d 3d 6c e3 91 bd
       -0.11143655 0.08722532 0.06892886 -0.071234554
000340 fb 58 cb bd 05 32 8e 3d 3a 90 32 bc 88 1c 1c be
       -0.09929081 0.06943134 -0.010898644 -0.15245259
000350 4c 70 7c 3c ee 83 43 be c5 ef 7e 3d 06 33 a4 bd
       0.015407633 -0.19093296 0.06224038 -0.080175444
000360 0a 8b 6a be 85 d6 90 be 76 6d e2 be 70 ef 83 be
       -0.22904602 -0.28288665 -0.44224137 -0.25768614
000370 4b 01 a4 bd d1 c7 d1 be 55 31 37 3e 1d f9 ef bc
       -0.08008059 -0.4097276 0.17889912 -0.029293591
000380 3e f7 65 be 5a 75 3b be de 58 cf be 1f a1 e4 be
       -0.22457597 -0.18306485 -0.40497488 -0.44654176
000390 e3 24 83 be 59 c3 cb be 4e d9 3f be 23 6f aa 3e
       -0.2561408 -0.39797476 -0.18735239 0.33287916
0003a0 1d 97 1a 3e 29 1f 18 3e 02 f5 35 3e c0 7c e7 bd
       0.15096708 0.14855637 0.17769244 -0.11303091
0003b0 3c 9f 4c 3e 11 62 1f be e5 aa 86 be 00 52 fd bd
       0.19982618 -0.15564753 -0.26302257 -0.12369156
0003c0 15 6b 54 3e 39 36 72 3e 27 c0 f3 3e 8a 86 f2 bd
       0.20743974 0.23653497 0.47607538 -0.118420675
0003d0 f1 42 5e bd 61 5b 46 3e 5c 8f 39 3e 3b d4 12 3e
       -0.05426306 0.19370796 0.18121094 0.14338772
0003e0 6f f4 00 3e bc aa 1b 3e 39 d5 9a 3d c1 9a 18 be
       0.12593244 0.15201849 0.075602 -0.14902784
0003f0 32 35 e4 bd 6a af c7 bd d8 0c d6 3c 08 2b a9 3d
       -0.11142959 -0.097502545 0.026129171 0.08260161

encoder.0.bias f4 [16]
000000 e4 2b a5 bc 71 db 13 3d 19 f7 dd 3e fe 99 67 3d
       -0.02016253 0.036097948 0.43352583 0.056543343
000010 e3 9b 10 be dc 1f 93 3d 03 42 0f bb f2 31 76 bc
       -0.14121966 0.07183811 -0.0021859414 -0.015026556
000020 86 e5 1d 3f 87 8f f3 3d 05 76 e6 3e 83 88 f5 3d
       0.6167835 0.1189261 0.45011917 0.11988928
000030 83 15 2f bd b8 e2 b2 bc fc 9a 53 bd 5c 14 b3 bd
       -0.042745125 -0.021836624 -0.051661476 -0.087441176

encoder.2.weight f4 [32, 16, 7, 7]
000000 86 66 2a be ce bc e2 3d fb 1c 31 3d 16 f4 9c bd
       -0.16640672 0.11071168 0.04324053 -0.07663743
000010 ab cc d7 bd 0c 2c 15 be 25 7c 53 3e 68 07 44 be
       -0.10537084 -0.14567584 0.20652826 -0.1914345
000020 62 e9 75 bd f3 51 a6 3b 44 fb 92 be 4a 4b ea bd
       -0.060037024 0.005075687 -0.28707325 -0.114401415
000030 21 09 2a bd 7b 85 95 3d 81 89 6e bc 2c 9c 26 3d
       -0.041512612 0.0730085 -0.014559151 0.04067628
000040 2b 3a d3 bc d0 ee 40 bd 1c de 26 3c da 66 2a be
       -0.025784573 -0.04710275 0.010184791 -0.16640797
000050 56 ca 8a bc 8a 09 44 be 0c d0 82 3e 11 dd 06 bd
       -0.016942184 -0.19144264 0.25549352 -0.03292567
000060 52 68 05 be c9 15 29 3d 99 0c a0 bd 31 21 23 bd
       -0.13028076 0.04128054 -0.07814903 -0.039826576
000070 f3 40 6d 3d 6c cd 77 3c c2 4c 87 bd 07 ae 49 be
       0.05792327 0.01512466 -0.06606437 -0.19695292
000080 97 3a db 3d 26 c8 c6 bd 9d ad c9 bd 94 49 91 bc
       0.107045345 -0.09706144 -0.09847567 -0.01773528
000090 83 80 f8 bb d6 01 f6 3b 47 38 55 3c dc 11 ae 3d
       -0.007583679 0.007507543 0.013013906 0.084995
0000a0 8e 93 de 3d af 29 a0 3d 29 f3 09 be e4 39 bc 3d
       0.108679876 0.078204505 -0.13471664 0.09190729
0000b0 1f 0d ee 3d fd 3b b5 bc e4 ff 48 3e 74 e4 d6 bc
       0.116235964 -0.022123331 0.19628865 -0.026231982
0000c0 3e 65 84 3d 9e f9 96 bd df 2f 1b be 1b b7 1c 3e
       0.06464623 -0.073718295 -0.1515498 0.15304224
0000d0 fa 9d 7a 3e 92 77 82 3e bc d0 26 3d b5 48 96 3e
       0.24474326 0.2548185 0.04072641 0.29352346
0000e0 1f 97 2f bd 53 08 6a bc c6 46 bc 3c b6 9d d2 bd
       -0.04286873 -0.014284211 0.022982966 -0.10283987
0000f0 6b dd 00 3e 46 ca f5 bd 9e b1 cd 3d 68 94 a9 3d
       0.12584464 -0.12001471 0.100436434 0.08280259
000100 41 a3 a0 bd c9 aa d2 bd eb 67 41 3c a2 2a b3 bd
       -0.07843638 -0.10286481 0.011804561 -0.08748366
000110 a8 7e 8e 3c c3 49 3e 3d 74 40 29 3b 3b 96 7e 3e
       0.017394379 0.046457063 0.002582577 0.24861996
000120 a9 27 17 3e 60 38 ba 3d 57 1a fb 3d d7 33 a1 3d
       0.14761223 0.09092784 0.12260883 0.07871216
000130 ea cb 27 3e 40 c1 b7 3c 8b 2e 4c 3d 81 73 35 3c
       0.16386381 0.022431016 0.049849074 0.011074902
000140 ba 4f 23 3d 34 9b a3 3c 97 22 e0 3c 3e d5 a2 3d
       0.039870955 0.019971468 0.027360244 0.07950829
000150 d8 e0 8c 3d 02 40 b3 3b ca a7 84 bd 56 6b 8a bc
       0.06878823 0.005470277 -0.06477316 -0.016896885
000160 95 a2 17 3e 16 94 6a 3d 47 dc 4c be fa 91 8e bd
       0.14808114 0.057270132 -0.20005904 -0.069614366
000170 bf 3a 3a bb 7c 19 05 3e 8b 32 9d 3d 1a d9 20 3e
       -0.0028416363 0.12998003 0.07675656 0.15707818
000180 80 24 da bd 44 a3 79 3e f2 7c 19 3d 6c e9 4b 3c
       -0.10651493 0.24378687 0.037472673 0.012445789
000190 cf 03 35 3e b2 5b 49 be 4e 56 6d bd 4a 7e af 3e
       0.17677234 -0.19663885 -0.057943635 0.34276038
0001a0 41 a9 3f bd be d1 44 3e 3c 38 64 3e 4c be 88 be
       -0.046792272 0.19220635 0.22287077 -0.26707685
0001b0 49 d8 2e be 3c 24 56 bc 2d 5f e9 be bc e6 9e 3e
       -0.17074694 -0.013070162 -0.45580426 0.3103541
0001c0 4d eb c3 bd ae 8a 79 be 1e 97 8c 3c 26 7d 93 3e
       -0.095663644 -0.24369308 0.017161902 0.28806418
0001d0 08 00 ec be 03 20 b5 be fa e4 29 3d fd 71 8f 3d
       -0.46093774 -0.35375986 0.041478135 0.070041634
0001e0 02 6a a7 3c 05 13 07 bd 29 7c 07 3a cc fa c6 bd
       0.02043629 -0.032977123 0.00051683426 -0.097158045
0001f0 a4 fc f7 3e 6a 58 98 3e 14 29 e6 bd fd ce 63 3d
       0.48434937 0.29754955 -0.11238304 0.05561732
000200 92 ee 6e be 17 c2 27 3e 48 f8 09 be 22 3f 6e 3d
       -0.23333195 0.16382633 -0.13473618 0.058165677
000210 9e 8b 3c be d8 10 4e 3e 66 48 70 bd 5f 40 89 be
       -0.18412635 0.20123613 -0.058662795 -0.26806924
000220 31 68 4d bd 22 17 ed bc f6 4c 9f be 75 24 40 bc
       -0.050148193 -0.028941695 -0.31113404 -0.011727442
000230 aa 62 65 be 16 f4 7a 3e 0d fc a1 be 88 7b 79 3e
       -0.22400919 0.24507174 -0.31637612 0.2436353
000240 52 31 15 3d cc 90 23 3d 58 74 96 3e 3d 7e 98 bc
       0.03642399 0.03993301 0.29385638 -0.018614883
000250 33 3a 34 be cd d3 6c be a4 2e e1 3d 4e 58 8a bd
       -0.17600326 -0.2312767 0.10995224 -0.06755124
000260 4a ac 46 3d f9 77 67 bd 6e b4 3f be 10 2e 54 be
       0.04850415 -0.0565109 -0.18721172 -0.20720696
000270 b1 16 c4 3d ea 04 7d bd 91 84 39 be 46 4e 0c 3d
       0.095746405 -0.061772265 -0.18116976 0.034254335
000280 fb 96 99 bc 2b 94 4e bd b4 42 8f 3b 1b 81 b0 bd
       -0.01874875 -0.050434273 0.0043719653 -0.08618375
000290 2a 62 fb bd 94 8d 8d 3d 57 47 cd bd 94 82 a9 be
       -0.12274583 0.069117695 -0.100233726 -0.33107436
0002a0 72 e1 99 3e e9 a7 e2 3d f4 02 1f 3e 7d 0b 2f be
       0.30054814 0.110671826 0.1552847 -0.17094226
0002b0 79 e8 83 3e 91 d6 86 bd cc 22 29 3c b0 c3 29 3e
       0.257633 -0.06583894 0.010323238 0.16578555
0002c0 91 de c7 3d 56 ef 35 be 4d a9 8c bd 0e 37 f8 bc
       0.09759248 -0.1776708 -0.06868229 -0.03029969
0002d0 91 c7 18 3d c1 73 b1 bd da 19 53 bc a4 2d 0f be
       0.037299696 -0.086646564 -0.012884581 -0.13982254
0002e0 8a 80 1b 3d 59 4d 80 bd f8 3f 1c 3e dc cd 0e bd
       0.03796438 -0.06264753 0.15258777 -0.03486429
0002f0 a3 5c ea 3b 89 97 44 3e 07 5d cf 3d f1 45 b9 bd
       0.0071521564 0.19198431 0.101251654 -0.090465434
000300 77 83 07 3e e1 7e d6 3d 45 63 fe 3d 1b d1 22 3d
       0.13233744 0.10473419 0.12421278 0.0397502
000310 76 27 b2 bc 16 45 e6 3c c6 6e f8 bd ee ca 1b bc
       -0.021747332 0.028109115 -0.12130503 -0.009508831
000320 2e 6b 5c 3d af 48 3e bd 33 7a a0 be 70 3e d9 3c
       0.053813152 -0.046456035 -0.3134323 0.02651903
000330 f2 1a b4 3c 71 fa e9 3e 5b 51 73 be aa b1 41 3e
       0.021985505 0.45698884 -0.23761503 0.1891543
000340 23 cd c0 3d b0 93 57 3d 3c 23 16 3c 59 d0 88 bc
       0.09414127 0.05263108 0.009163674 -0.01670091
000350 12 88 92 be ef 29 92 3d 81 fa 35 3e 12 9e 20 be
       -0.28619438 0.071369044 0.17771341 -0.15685299
000360 a5 47 45 bd f8 44 a6 be f6 bd 45 3e 1d 75 8a 3e
       -0.04816403 -0.32474494 0.19310746 0.27042475
000370 5e c3 7c 3e f5 f3 15 be 7b 5b 80 3d 79 df 61 be
       0.24683902 -0.14643843 0.062674485 -0.22057904
000380 c8 1c f5 bd 60 18 2c bd 68 ea 33 be 30 42 a3 3e
       -0.1196838 -0.042015433 -0.17569888 0.31886435
000390 11 5e 11 3d 0c 1b 97 bd 19 9c b4 be 66 e1 11 3e
       0.0354901 -0.07378206 -0.35275343 0.14246139
0003a0 0f 76 3d 3e a8 90 d0 3e 13 a1 da 3e 65 80 24 be
       0.18502067 0.40735364 0.42701015 -0.16064604
0003b0 4b bf 84 3e 4e 94 39 be 5a 60 b3 3e 0c a9 89 3d
       0.25927195 -0.1812298 0.35034448 0.06721696
0003c0 c8 8c 62 be 0c a6 39 be 74 d2 71 be ff cd d7 bd
       -0.22124016 -0.18129748 -0.23615438 -0.105373375
0003d0 98 78 3f 3e b5 fc fe 3d 30 b3 b5 be 43 8c 3b 3e
       0.18698347 0.12450544 -0.35488272 0.18315224
0003e0 f5 4f 0e 3e bd 9a de 3e 23 39 1a 3d 35 7f 16 3e
       0.13897689 0.4347743 0.037652146 0.14696963
0003f0 74 8d 16 be 99 c6 05 be 6b c3 1d be 53 b4 1e bd
       -0.14702398 -0.1306404 -0.15406577 -0.03874619

encoder.2.bias f4 [32]
000000 ea bd 97 3d cf 10 bc 3b 46 d1 58 bc 4a d0 df 3d
       0.0740927 0.0057393084 -0.013233488 0.109284
000010 61 93 38 3e cd be 80 bc 0a 9a 7f 3b c8 b0 00 3e
       0.1802497 -0.01571598 0.0039001727 0.12567437
000020 4d 62 1d bc 95 87 b4 bc 9c ab 8d 3d 52 49 5a 3c
       -0.009605956 -0.022037307 0.069174975 0.013323145
000030 fe 50 86 3c aa 6a aa 3d 89 4b fe bb 06 27 aa bc
       0.016396042 0.08321126 -0.0077604693 -0.020770561
000040 53 ba 58 3c 2a 91 46 3c b9 91 a4 bc 0a c1 11 3e
       0.013228017 0.012119571 -0.020089017 0.14233795
000050 ab c6 10 3d 40 0e b7 bc b1 83 9a 3d 07 ae c9 bc
       0.035345715 -0.022345662 0.075446494 -0.024619116
000060 c2 e6 e1 bc c5 89 e3 bc 6c e4 d0 bc ac ef 02 3d
       -0.027575854 -0.027775655 -0.025499545 0.03196685
000070 b9 fe 25 ba d2 7c 9f bc e7 4a 27 3d d6 7f 0d 3c
       -0.0006332207 -0.019468699 0.040842917 0.0086364355

encoder.4.weight f4 [3, 32, 7, 7]
000000 0e 41 bd 3c c8 55 1e 3d 15 4f 62 3d 84 34 46 3d
       0.02310231 0.038656026 0.0552512 0.048389927
000010 a9 b6 bd 3d ae 81 c2 bb 6d 7b 89 3b 5d ad 5e 3d
       0.09263355 -0.005935869 0.0041956217 0.05436455
000020 d9 ca 35 bd 92 12 86 bd dd 09 ea 3c 77 50 1f 3d
       -0.044382904 -0.06546511 0.028569156 0.038895097
000030 b9 05 0b 3e 78 9d c7 3d bf 6c e9 3c 62 a2 0b 3c
       0.13576402 0.09746832 0.028494237 0.008522602
000040 1a 61 3c bb 33 be 07 3c fe c6 c1 bd 3a db 41 bd
       -0.00287444 0.008285093 -0.09461783 -0.04732821
000050 75 f2 ce 3a 23 fa c4 3d a2 3b 62 bd 86 5d 3b 3c
       0.001578881 0.09618022 -0.05523265 0.011435872
000060 0c db fa 3d e1 8a af bd 4f 0b 2d bd f1 53 01 bd
       0.12248811 -0.08571411 -0.042247113 -0.031574193
000070 73 a0 d0 3c 4e 44 bd bd 47 44 93 bd 41 7f 26 3d
       0.025467133 -0.09241544 -0.07190757 0.040648703
000080 91 ef 51 3d 8b ef e4 bd 12 a2 0b bd 5f fe 26 bd
       0.05125386 -0.11178502 -0.03409011 -0.04076993
000090 74 48 99 bd 63 3b dc bd 37 df c3 bd 4d 39 0d 3b
       -0.074845225 -0.107535146 -0.09564059 0.0021549047
0000a0 37 ef 60 3d a9 5a df 3d 1c fc 60 3d cf ae 9f bd
       0.054915633 0.10905964 0.05492793 -0.07797014
0000b0 99 2b 42 bd 80 a4 2c 3d 41 a1 50 bc 94 a4 7d 3d
       -0.04740486 0.042149067 -0.012733758 0.061924532
0000c0 b2 50 b8 bd bb 89 2b bc 70 44 97 bb 63 7e 26 3c
       -0.089997664 -0.010469849 -0.0046163127 0.010161969
0000d0 5d db 8d bc 3a 16 81 3a 86 f0 d4 3b 28 99 87 bb
       -0.017316515 0.0009848543 0.006498399 -0.0041381307
0000e0 35 e8 a8 39 51 24 02 3b 05 7f ea bb 35 3b c5 bb
       0.00032216465 0.0019858072 -0.007156255 -0.006019021
0000f0 e7 f6 00 3c 99 f8 87 bc 55 59 9a bc b2 cd 9b ba
       0.007871366 -0.016598033 -0.018841425 -0.0011886864
000100 cb a2 9f bc 3a a3 88 bc eb b6 65 bc 0c af c7 bb
       -0.019486805 -0.016679395 -0.014020662 -0.0060938653
000110 ea d5 a6 bc 47 64 c3 3b e9 0b ae bc e2 a5 1e bb
       -0.020365674 0.0059628817 -0.021245914 -0.002420776
000120 68 2c 93 bc 4b f0 a8 bc 98 f9 33 3c ad 03 e3 3a
       -0.01796551 -0.020622393 0.010984801 0.0017319821
000130 ad 54 16 3c 80 c2 a3 3b 06 eb 8b bc 0f 8b b1 bc
       0.009175462 0.0049975514 -0.017079841 -0.021672754
000140 f3 ff 31 3a 01 d1 1c bc 55 57 a7 3b 9c 66 11 3c
       0.00067901536 -0.009571315 0.0051068463 0.008874562
000150 92 35 fe bb 07 be ff 3b 9a f0 50 3c 3a be 22 bc
       -0.007757851 0.0078046354 0.012752676 -0.009933049
000160 70 de 24 3b aa 52 bc 3a cd 9b 52 3b fa 9a c4 bb
       0.0025156997 0.0014367898 0.0032136322 -0.00599992
000170 94 33 83 bc b7 c9 5a bc 66 4d 6d bb bc 86 b7 3a
       -0.016015805 -0.013353757 -0.0036209463 0.0014001946
000180 cd f9 1f 3c 27 12 7b 3b cb c7 8e bb 4b 98 09 3c
       0.009764147 0.003831038 -0.0043573133 0.008398126
000190 58 75 09 bc 61 5a 1c 3c b5 e6 29 bc d9 e1 a4 3b
       -0.008389793 0.009543032 -0.010369946 0.005031806
0001a0 16 32 bc 3c dd 73 4b 3c a5 ef 5f 3b 07 49 87 bc
       0.022973102 0.012417761 0.003416994 -0.016514314
0001b0 f3 32 90 3b eb 7f ee 3b 27 f4 1b 3a 9d f3 9f bc
       0.004400605 0.0072784326 0.00059491623 -0.019525344
0001c0 e7 9e 3c 3c da 62 2b bc 7b e6 f3 bb bc e1 1c 3c
       0.011512495 -0.01046058 -0.007443247 0.009575304
0001d0 78 28 47 bc 3a 3f 47 bc fa 64 3f bc 05 4e 8e bb
       -0.012155645 -0.0121610705 -0.0116817895 -0.0043427967
0001e0 ab 5d 42 3c e7 02 3e bb 9f 37 22 3c 45 f8 90 3b
       0.0118631525 -0.002899343 0.009900956 0.0044241273
0001f0 51 31 2b 3c 6e cb 7a b6 0b 26 59 3c 20 0d 61 3b
       0.01044877 -3.7371315e-06 0.013253699 0.0034340099
000200 1d d3 88 3a ae a8 bc ba a8 fe 55 3c 05 97 04 3b
       0.0010438893 -0.0014393532 0.013061203 0.0020231616
000210 9e 70 04 3c 5a fc 78 bb 27 1d 81 bc 39 eb 0f 3c
       0.008083491 -0.003799221 -0.015760971 0.008784109
000220 e9 f4 48 bc 62 49 53 bc 2c e4 4e bb be 66 99 bb
       -0.012265422 -0.012895914 -0.0031569107 -0.0046814373
000230 0a f2 95 b9 78 90 3e 3a 30 ff 23 bc 76 9e a7 3a
       -0.00028599828 0.00072694523 -0.010009572 0.0012788314
000240 98 8f 45 3c c9 6e 29 bc 5b 0d 0c bc 94 c8 85 bc
       0.012058161 -0.010341355 -0.008548106 -0.016330995
000250 4f cb be bd e0 b6 72 bc 04 33 1e bd e5 2e 62 bc
       -0.09316122 -0.014814109 -0.03862287 -0.013805126
000260 78 27 0e 3d c0 12 37 3d fa 3d 0d bd 67 5e ac 3d
       0.03470561 0.044695616 -0.034482934 0.08416443
000270 99 1d ed bd ac 80 3a bd 78 61 15 bc 08 c4 98 3c
       -0.11577911 -0.045532867 -0.009117477 0.018648162
000280 4d 0c 97 3c 07 f0 55 3c 13 48 1e bc 40 d0 c2 bd
       0.018438483 0.013057715 -0.0096607385 -0.09512377
000290 a2 c6 2f bd 04 ab 1d bd 2a 7c a3 bd bd 7a 84 bd
       -0.04291404 -0.03849317 -0.07982667 -0.06468723
0002a0 16 cb 31 3c 23 b4 be 3d 25 6b 02 bc 18 88 80 bd
       0.010851642 0.09311702 -0.007960116 -0.06275958
0002b0 3a e2 c9 3d 27 03 32 3d 88 84 df 3d 6e 86 5a 3d
       0.098576024 0.043460038 0.1091395 0.05335086
0002c0 20 53 00 3c e1 09 f9 bd 4a 39 ee 3c 43 24 d5 bb
       0.007832319 -0.121600874 0.029080052 -0.006504567
0002d0 d6 7c 1d 3a d0 48 7b bd 87 d8 c1 3c 47 bc 41 3c
       0.0006007677 -0.061348736 0.023662819 0.011824674
0002e0 37 ac 18 bc 19 91 0e bd 38 37 2d 3d ba 7f fa 3c
       -0.009318403 -0.034806345 0.04228899 0.030578483
0002f0 28 79 fe 3c 19 b1 01 bd ad 2e d6 3c ce 0a 04 bd
       0.031063631 -0.031663034 0.026145304 -0.032236867
000300 e4 5d 8f bb 96 fe 53 bc 6d 56 a4 3d 29 a9 35 3d
       -0.0043752063 -0.012939116 0.08024297 0.044350777
000310 57 bd 8d bd ac 3f a0 bd a9 f3 7a 3d c5 4c 4f 3d
       -0.06920879 -0.078246444 0.06126753 0.050610323
000320 a2 7a a2 3c 0c 16 30 3d 9e 60 3c 3d 03 02 01 3d
       0.019833867 0.042989776 0.04599058 0.03149606
000330 13 c0 f1 bd e6 86 24 3e d1 d7 10 be ee 68 40 3d
       -0.118042134 0.16067085 -0.14144827 0.04697507
000340 f5 95 06 3d 5a 78 15 3d 74 cd a6 3d 6f 25 ec 3c
       0.032857854 0.03649173 0.08144656 0.028826443
000350 e0 a8 fc bd c6 34 c4 3d 93 ec 9b 3d c0 27 b3 bc
       -0.12336898 0.09580378 0.07613482 -0.02186954
000360 6e 51 39 3d 47 89 b4 bd 48 89 67 bb 21 1e df 3d
       0.045243673 -0.08815246 -0.0035329629 0.108944185
000370 f2 bd 9b 3d 99 0c 00 bd 48 6e 29 be ad 7c cd bd
       0.076045886 -0.031262014 -0.16545975 -0.10033546
000380 9d 38 8c bd 41 5f f0 3c 48 c0 d3 3d 74 b7 3c bc
       -0.068467356 0.029342296 0.10339409 -0.011518348
000390 d5 b4 80 3d cb 46 9f bd 8f 5c 25 bd 49 15 5e 3d
       0.06284491 -0.077771746 -0.040371474 0.054219518
0003a0 e3 ad df bc 14 8c 01 3d 67 78 1c 3d fe 5d 68 bd
       -0.027304595 0.03162773 0.038200762 -0.056730263
0003b0 84 83 a5 3d 04 9c 0d bc 47 33 dc bd 30 84 62 bd
       0.08081725 -0.008643154 -0.10751968 -0.055301845
0003c0 07 81 97 bc 91 7a cc 3c 58 cd 5c bd ba f0 b0 bc
       -0.018494142 0.024960788 -0.05390677 -0.021599162
0003d0 2e 35 8f 3d 45 5c 81 bc 27 bf ad 3b 79 d3 00 ba
       0.06992565 -0.015791068 0.005302328 -0.00049143244
0003e0 99 93 bc bb fa 07 53 bc bc 65 c2 3b 3a d9 a8 bc
       -0.0057548997 -0.01288032 0.005932538 -0.020611394
0003f0 7d 05 8b bc 8b 8a 72 3c c1 ef 2b bc 68 04 6c bc
       -0.01697039 0.014803539 -0.0104941735 -0.014405347

encoder.4.bias f4 [3]
000000 2b 42 78 3d 95 55 f1 3c 58 ce 4a 3d
       0.060609978 0.029459754 0.04951319

decoder.0.weight f4 [3, 32, 7, 7]
000000 54 97 d9 3c 00 88 ba 3c 92 1c 29 3b 34 fe 00 bd
       0.026561417 0.022769928 0.0025804383 -0.031492427
000010 2b 3a 13 bb d5 8d 58 3d b1 d9 12 bc ce 6a 00 bd
       -0.002246509 0.052869637 -0.0089630345 -0.031351857
000020 be 50 a5 3b f1 5b c0 bb de 54 2c 3b 78 12 c4 3d
       0.0050450256 -0.0058703353 0.0026295702 0.09573835
000030 b2 8b 9f 3d c1 de 74 bd ab 0e 77 bd 63 9f 92 3d
       0.07790317 -0.059782747 -0.060316723 0.07159307
000040 82 82 f0 3c 35 3d 03 be 3c 46 30 3d ce fd f1 3d
       0.029359106 -0.12816317 0.04303573 0.118159875
000050 3d dd 86 3d 2e c3 b2 3d dc 41 a3 3c e5 32 ad bc
       0.065851666 0.08728634 0.019928865 -0.021142432
000060 8c df 99 bd d7 12 3d 3d 31 07 5b bc a7 e1 51 bc
       -0.07513341 0.046160545 -0.013368414 -0.012810147
000070 98 9a f6 bc 92 33 e8 3d 9d 19 34 3d 8e 6b 30 bc
       -0.030103013 0.11337961 0.04396974 -0.010767831
000080 d0 d9 a8 bb a0 31 dc bd 48 41 6c bd d8 14 10 3b
       -0.0051529184 -0.10751653 -0.057679445 0.002198508
000090 54 c3 fc 3b bd 6a 41 bd fd 9b 8e 3d c4 b1 d8 3d
       0.0077137146 -0.047220934 0.06963346 0.10580781
0000a0 ad 60 5a 3a 2a e0 df 3c 7a 6a 56 3d ec 31 c7 3c
       0.0008330446 0.02732857 0.052347638 0.024315797
0000b0 42 12 65 3c ce da 24 3d 15 4e a1 bd a4 d4 e1 bc
       0.013981404 0.04024773 -0.07876221 -0.027567215
0000c0 23 8c c2 3c f1 c9 0a 3e d3 9e 2c 3e 3f a7 2d 3d
       0.023748463 0.13553597 0.16857462 0.042395826
0000d0 c4 9d a8 bd 86 38 71 3b 44 29 50 be 59 68 0a 3d
       -0.082332164 0.0036807372 -0.20328242 0.03379092
0000e0 c6 4b a5 bd 52 65 14 bd 9e 79 07 3c 37 3b e1 3d
       -0.08071093 -0.03622944 0.008268742 0.109976225
0000f0 23 99 49 3d 69 81 74 be af ee a3 be 49 66 fe 3c
       0.04921831 -0.23877491 -0.3201804 0.031054633
000100 7c 5c 35 3e 9c 03 7f bd 55 b8 11 be e3 86 a3 be
       0.17711061 -0.0622593 -0.14230473 -0.31938848
000110 76 b2 22 bd c5 26 51 3e 69 c1 4b bc 0d f0 30 be
       -0.039720975 0.20424946 -0.012436249 -0.17279072
000120 d5 21 06 3e 1f 5b 6c bd 7e 2b d1 3d 4d 53 a4 bd
       0.13098843 -0.057704087 0.102133736 -0.08023701
000130 ea ba 11 bd f8 bc ce 3c 22 8c c2 bd d3 fc 28 3e
       -0.035578646 0.025236592 -0.094993845 0.16502695
000140 63 f9 3e 3d ec bf ce 3c 9d e2 e2 3a ff 02 bf 3b
       0.046624552 0.025238 0.0017309968 0.0058292146
000150 ee 35 84 3d 3f 18 91 bd 25 da b7 3b dc b5 f3 ba
       0.06455599 -0.07084703 0.0056107217 -0.0018593627
000160 ec 15 ff bd aa a5 91 bd 5e 7b dc bc 17 7b 50 3c
       -0.12455353 -0.07111676 -0.026914295 0.012724659
000170 be 36 6b bc c6 f7 76 ba 33 a9 90 3d f6 18 04 3e
       -0.014356313 -0.00094210764 0.07063522 0.12900147
000180 5a c2 e4 3d b0 98 aa bd f2 5e e0 b9 73 bb 18 3e
       0.11169882 -0.08329904 -0.0004279535 0.14915256
000190 60 7a 40 3c 34 73 04 3e 05 d0 8e bd 88 0d 81 bd
       0.0117479265 0.12934572 -0.0697327 -0.06301409
0001a0 30 54 5f bb 1f fd 19 3c 7d 83 a3 3d 8b a4 0f bd
       -0.003407728 0.009398728 0.07984064 -0.03506903
0001b0 a8 85 23 3d 09 96 f1 3d dd 3d 47 bc 17 18 80 3d
       0.039922386 0.11796195 -0.012160745 0.06254595
0001c0 84 a8 d7 bd 1c 22 13 3e 9b 43 75 be 6f b2 5d be
       -0.10530189 0.1436848 -0.2395157 -0.21650098
0001d0 e6 88 af 3d 9a 04 87 3d 97 79 43 be dc c0 6b bd
       0.08571033 0.065926746 -0.19089352 -0.057556972
0001e0 68 99 80 3c 57 41 5a 3d 10 fc 93 3d a3 3f 6c be
       0.01569815 0.05328497 0.072258115 -0.2307115
0001f0 10 8d 97 be 60 73 e8 bd f2 a0 d6 bd 72 5d 21 bc
       -0.2959981 -0.11350131 -0.10479917 -0.009848939
000200 58 50 d9 bc e1 c8 2a be 59 f7 54 3f 15 d3 bd 3e
       -0.026527569 -0.16678192 0.8318992 0.37075105
000210 b8 2b 6c 3c 1f 73 cb 3c b3 2d ae bd b6 a9 3b be
       0.01441472 0.024835167 -0.0850481 -0.18326458
000220 1c 3f d7 3e a9 1f 62 bd 71 6c 03 be 3c bd a1 bd
       0.42040336 -0.055205975 -0.12834336 -0.07897422
000230 e1 a9 b0 3c 18 57 e7 3c e7 63 ab 3c 1a c6 51 3e
       0.02156538 0.028239772 0.02092166 0.20485726
000240 34 3a 22 bd dc 37 99 3d ce c1 55 3e 26 bb db bb
       -0.039606288 0.074813575 0.20874712 -0.0067056594
000250 dc 00 01 3d b3 07 03 bd b5 85 e2 3c 23 fd 3a bc
       0.03149496 -0.031989764 0.027651647 -0.011412892
000260 59 7e 89 3b 60 2e 2d 3d 68 1a 9d bb 7d 61 fe 3d
       0.00419597 0.042280555 -0.0047944076 0.12420938
000270 c9 fd f6 3c 09 96 19 bd 58 22 8a 3d c5 7c 25 3d
       0.030150311 -0.0374966 0.06744832 0.040402193
000280 58 5b 0c 3b 80 dc 9d bb 5e c3 c8 3c 4a 23 df 3c
       0.002141675 -0.0048175454 0.02450722 0.027238507
000290 72 a8 08 bc ff 94 ad 3c 5b b0 8b bc 25 97 ce bd
       -0.008340942 0.021189211 -0.017051866 -0.10087422
0002a0 13 31 72 3c 4a d6 cf 3c b1 34 c3 3d 8a b5 15 3e
       0.014782208 0.025370736 0.095315345 0.14620033
0002b0 64 7f 08 3b 0c 7f c7 bd 64 9a c1 bc 2c 8a 57 bc
       0.0020827884 -0.09741029 -0.02363319 -0.013155501
0002c0 55 92 f5 bc ca bb 31 bd ad 3f b6 bc fb 6b 3f 3d
       -0.029977003 -0.04339198 -0.02224716 0.046733838
0002d0 10 ee c1 3d ff 85 1d bb c6 59 21 3d 6d e9 94 bd
       0.09469235 -0.0024036167 0.039392255 -0.07271085
0002e0 08 1d 92 bd c6 4e 3b 3d 3c 58 78 3c 5c 69 15 bc
       -0.071344435 0.04572942 0.015157755 -0.009119358
0002f0 82 bc 31 bd 32 a7 c8 bb 7f eb 93 bd 25 d1 a4 bc
       -0.043392666 -0.006123447 -0.07222652 -0.02011926
000300 b0 db 6f bd bd cb 1b 3d db 28 92 3c c7 c0 b2 3b
       -0.05855912 0.038036097 0.017841747 0.0054551098
000310 d6 22 ef bd a9 b0 10 bb 73 4c c2 bd 3b 0f 9f bd
       -0.11676566 -0.0022077954 -0.09487238 -0.07766577
000320 74 1b 51 be da 0c b8 3d c6 8d e3 3d 1f 80 eb be
       -0.20420629 0.08986826 0.111110255 -0.45996186
000330 0a 47 a4 bd d8 64 c7 bd 3f b7 d7 bd 35 4e 2f be
       -0.08021362 -0.09736031 -0.10532998 -0.17119677
000340 56 76 0f 3e 5a 13 ea 3c 64 34 64 be 85 3d a2 be
       0.14009985 0.02857368 -0.2228561 -0.3168756
000350 07 31 61 bd 43 99 91 3d c8 5b 09 bc ca 2a 48 bd
       -0.054978397 0.071093105 -0.008383699 -0.04886893
000360 05 74 35 3e af 1f 27 be 99 e6 37 3e 76 31 16 bd
       0.17720039 -0.1632068 0.1795906 -0.036668263
000370 6f 79 4a 3d a5 fa c6 bd 58 49 bc 3d 43 c0 33 bd
       0.049432214 -0.097157754 0.09193677 -0.043884527
000380 94 11 37 be 8d ab 2a 3e 12 0b a4 3d 2d c2 e5 bd
       -0.178778 0.16667004 0.08009924 -0.11218677
000390 6e 6e 42 be c4 e8 e2 3d 86 51 9d 3d 9e f4 c7 3d
       -0.18987438 0.11079553 0.07681565 0.09763454
0003a0 02 66 96 bd af 4e 99 3d 08 7f 99 3d 64 51 7a bd
       -0.07343675 0.07485711 0.074949324 -0.061112776
0003b0 28 b4 c1 3c 66 c8 80 3d 96 8b 02 3d b3 87 b0 bd
       0.023645476 0.06288223 0.0318714 -0.086196326
0003c0 dd 26 89 bd 66 1f 02 3e 5e 0e 89 3d 0d 32 86 bd
       -0.06696866 0.1270729 0.066921934 -0.06552515
0003d0 d1 95 e6 bd b3 93 77 3d 61 84 95 3e d6 5a 03 3e
       -0.11259044 0.06044359 0.2920256 0.1282762
0003e0 c4 c8 e7 3d 23 a1 bb 3d e5 b9 63 3d b7 21 70 bc
       0.1131759 0.09161594 0.055597205 -0.014656476
0003f0 a3 65 61 bd bc f1 37 3d 0f fb 99 3d 9d 3b 01 bd
       -0.05502857 0.04490827 0.07518589 -0.031550992

decoder.0.bias f4 [32]
000000 1d e4 3e 3e 85 3b 92 bd 17 ad b5 be b8 22 9e 3d
       0.18641706 -0.07140259 -0.3548362 0.07721466
000010 1e c3 be 3b d0 6b 12 3f 96 a6 37 3e 53 4b a3 be
       0.0058215996 0.5719576 0.17934641 -0.31893405
000020 8c 1e c6 bb 72 84 bb bd 89 d6 23 bd 80 28 77 3c
       -0.006046122 -0.09156121 -0.03999952 0.01508534
000030 76 e4 92 3d e3 1f da 3d 86 78 de 3d 0d 73 8a bd
       0.07172482 0.10650613 0.10862832 -0.067602254
000040 0c f6 a6 bd d1 82 ae 3c 01 2f 65 3d 75 0c 09 3e
       -0.081523985 0.021302612 0.05595303 0.13383658
000050 dc 68 30 3c 04 8c fa 3e d6 b4 ac bd ee 46 8b be
       0.010767188 0.48934948 -0.08432929 -0.27202553
000060 ad f1 e8 3d d4 f1 5a bd 1a 5a 0d be d0 5f 86 be
       0.11374221 -0.05345328 -0.13803902 -0.26244974
000070 f0 48 aa 3d 98 8f bf 3d de 08 9d bd 34 0b ae 3d
       0.08314693 0.0935356 -0.07667707 0.084982306

decoder.2.weight f4 [32, 16, 7, 7]
000000 7c fd f7 3c c0 87 7f 3c 37 c4 8c bd 21 fe 55 bd
       0.030272238 0.01559633 -0.068733625 -0.05224431
000010 90 33 a8 bc f8 cd 19 bd 9e bf 52 39 0e e7 84 bd
       -0.0205324 -0.037549943 0.00020098544 -0.06489383
000020 27 b9 bb bc 3d 6d f0 3d 84 8e d3 3c a6 32 c0 bd
       -0.022915436 0.117395855 0.025824793 -0.093846604
000030 bf ba 64 bd e1 79 c6 3c 9b f0 e8 bb c7 4f c2 bd
       -0.055842157 0.024228038 -0.0071087605 -0.094878726
000040 a7 1a fb bc 27 5d 81 3d 08 b7 e2 bc 63 fe b1 bd
       -0.030652357 0.063165955 -0.027675167 -0.086910985
000050 eb cb 8f 3d 7f a6 66 ba 03 0a 1d bc 9a ae 39 bd
       0.07021316 -0.00087986136 -0.0095849065 -0.04533253
000060 12 4b 83 3d 10 57 57 3c 6b 96 c1 bc 99 ae 8b bc
       0.06410803 0.013143316 -0.023631295 -0.017051028
000070 2f ad 78 bb d4 ee 91 3d 14 95 dc bc 2e 0c 75 bc
       -0.0037945022 0.07125631 -0.026926555 -0.014956517
000080 84 c2 27 3d 7f 08 5b 3d bc 34 9c bd a6 d2 86 bd
       0.04095699 0.0534749 -0.07627246 -0.06583147
000090 01 15 87 bd 4a 8e 77 3d e3 58 d2 3d eb 3b cb bc
       -0.06595803 0.06043843 0.1027086 -0.024808845
0000a0 f6 41 28 bd e8 d2 b7 bd 54 5c b2 3b a7 23 b2 bc
       -0.04107853 -0.08975774 0.0054431353 -0.021745516
0000b0 74 df 4b 3d 0a 8a 87 3a 41 65 a9 bd 9a a4 06 bd
       0.04977365 0.0010340821 -0.08271266 -0.03287182
0000c0 13 da a7 3b c9 62 92 bd 7e 9a f8 3c 27 90 71 3d
       0.005122432 -0.07147748 0.030347105 0.058975365
0000d0 60 3f 13 bd 80 ce b2 3a 0e ad 1a bd 3c 33 09 3d
       -0.03594911 0.0013641864 -0.037762694 0.033496127
0000e0 8c e1 a9 bb 84 8c 88 be 8e 35 e8 bc e7 d3 71 3e
       -0.005184358 -0.26669705 -0.02834585 0.2361599
0000f0 a0 7f 11 bc 26 5a 38 be e5 19 92 3b 29 bd 52 3c
       -0.008880526 -0.18003139 0.0044586533 0.012862482
000100 c4 95 9e bd 3f 76 83 bd f6 bb a7 bc f1 9f 61 3c
       -0.07743409 -0.06419038 -0.020475369 0.013771043
000110 d9 e6 48 3b 44 dd 6b 3d 8e 93 5e bc d4 8f 1d 3c
       0.0030655174 0.057584062 -0.0135849845 0.009616811
000120 f5 22 d9 bb 54 62 04 bd ee e5 20 3c 59 5b 21 3c
       -0.0066264817 -0.032320336 0.0098204445 0.009848439
000130 ea ca c5 bc a3 ea 8c bd d6 d3 13 bd 28 e1 b7 3d
       -0.024144609 -0.06880691 -0.036090694 0.08978492
000140 aa 5b 1d bd 7f 21 ef 3c 92 f0 e5 bc 0c 59 c4 bd
       -0.038417496 0.029190777 -0.028068814 -0.09587297
000150 a8 c4 cc bc 0e f6 1c bc eb ab 05 bd 6e 36 1d bb
       -0.024996117 -0.009580148 -0.032634657 -0.0023988741
000160 d7 b8 57 3b de 64 d5 bc 7a 8e 5e bc d7 8c a1 bd
       0.003291657 -0.026049074 -0.013583774 -0.07888191
000170 5d c0 20 3d 69 fd eb 3c c8 b2 d0 3c 04 d6 6a 3c
       0.039245952 0.028807359 0.025475875 0.014333252
000180 2f 47 60 bc 3f 9c b5 3d 60 4b 15 bc a9 f3 3b 3d
       -0.0136888465 0.08867692 -0.009112209 0.04588667
000190 de 65 c6 3d 86 86 5d bd 80 be db 3b 3e bb ac bb
       0.096873984 -0.05408337 0.006706059 -0.0052713444
0001a0 11 97 78 bd ef da e0 3c fa 96 90 3c 5a e4 fd 3b
       -0.060690943 0.027448146 0.017650116 0.007748169
0001b0 0f 96 89 3d 5c e6 86 3d 46 d9 f0 3b 13 12 ad bc
       0.067180745 0.06586906 0.0073501198 -0.021126783
0001c0 ef 94 1f bd ee e5 6f bd bf cf 11 bd 05 0c 16 3d
       -0.038960394 -0.058568887 -0.035598513 0.036632556
0001d0 b6 62 cc 3b 3b 80 f5 bc 74 78 35 3c ca 8c 00 3b
       0.006237353 -0.029968372 0.011076082 0.0019615167
0001e0 cf 8a c5 bc 2c 53 a5 bb 0e 32 91 3c 18 07 45 bd
       -0.02411404 -0.0050453153 0.017724063 -0.04810247
0001f0 f0 51 19 bd 7a 86 d4 bb 49 97 6c bc c6 36 79 3c
       -0.037431657 -0.0064857574 -0.014440366 0.015210813
000200 02 41 a2 3d 28 30 b1 bd 9e 36 15 bd 62 51 4d 3d
       0.079225555 -0.08651763 -0.03642904 0.05012644
000210 f1 d3 8c bc 9e a6 29 3c 98 6e a3 bc 1d 5c c0 bc
       -0.017190905 0.010354666 -0.019950196 -0.023481423
000220 db 3c e0 3c e9 2d 10 3b 0b e2 10 3b 49 78 ea 3b
       0.027372768 0.002200002 0.0022107388 0.0071554524
000230 a6 d5 87 ba 67 79 44 bd eb 69 3c bd 10 e5 15 3d
       -0.0010363355 -0.04796734 -0.04599945 0.036595404
000240 80 a0 0c 3d c1 a6 88 bc d8 0c 80 bc fe e1 3a 3d
       0.034332752 -0.016681077 -0.015631124 0.04562568
000250 58 6b 2c bc f3 8f 7e bd 8a 41 48 bd 0b 5b ba 3d
       -0.01052364 -0.062149 -0.048890628 0.09099396
000260 91 7b 35 3d ed 6a e8 bc 2a e3 a1 3c 79 45 87 3c
       0.044307295 -0.028371299 0.01976164 0.01651262
000270 4c ba 9b bb cb 5d 64 bd 4c 1d 95 bd 3c c7 8c ba
       -0.004752433 -0.05575351 -0.072809786 -0.0010740529
000280 0c 6a dd bb 5d 95 8f bd f3 50 8b bd 05 23 61 bd
       -0.0067570265 -0.07010911 -0.06802549 -0.054965038
000290 85 63 df 3c 89 80 21 bd 62 74 49 bd 42 a6 12 3d
       0.027269134 -0.03942922 -0.049183257 0.035803087
0002a0 f7 c3 fe 3c 91 37 81 3c 13 4e 05 bd ff a2 9e 3b
       0.031099303 0.015773566 -0.03254516 0.004841208
0002b0 61 35 f0 3c 18 78 c5 bc 8e c4 0f bd 01 79 1e 3c
       0.029322328 -0.024105117 -0.03509956 0.009672404
0002c0 c8 97 57 ba 7e 88 bb 3b 65 52 a7 bc 6c f2 60 ba
       -0.0008224216 0.0057230582 -0.020425031 -0.00085810455
0002d0 47 0e c7 3d 08 d3 7c 3d 3c e2 a5 bc 95 dd 57 bd
       0.0971952 0.061724693 -0.020249479 -0.05270155
0002e0 03 c2 29 3c 79 78 6d 3d 6e a6 5b bd 47 51 ef bc
       0.010361197 0.05797622 -0.053625517 -0.02921356
0002f0 d8 62 09 bd 0b 8a bc ba bd bf 6c 3b 05 7c 57 3d
       -0.03354153 -0.0014384402 0.0036125027 0.05260851
000300 c5 42 a6 3c 36 4a 1e 3c 3a a4 8e bc 14 9c 61 3d
       0.02029551 0.009661248 -0.017412294 0.05508049
000310 43 9d e7 39 be db 87 3e a5 ed c1 3c 2d d4 44 bc
       0.00044176923 0.26534837 0.023672888 -0.012013477
000320 8f 35 1d 3e 6b 79 71 bc ff bb 26 bc df b3 97 39
       0.15352462 -0.014738421 -0.010176658 0.0002893498
000330 eb e7 ba bc 83 21 05 bb 37 bc 6a 3d b5 4a 57 3c
       -0.022815665 -0.0020314164 0.057308402 0.01314037
000340 02 9c 8a bc 0c 4f 82 3a 02 1d 03 3e 6d 80 38 3d
       -0.016920093 0.0009941771 0.12804034 0.04504435
000350 25 a5 76 3c 5b fd 7a bc 24 c8 b1 bb 45 45 00 bd
       0.015054022 -0.015319194 -0.00542547 -0.03131606
000360 08 1c c5 3c d5 e5 c4 bb 14 f0 4b bb 67 03 1f bc
       0.024061218 -0.0060088434 -0.003111844 -0.009705401
000370 27 7e 5e 3d 90 e9 ba 3b 81 0b b4 bc 14 e2 3d 3b
       0.054319527 0.0057041124 -0.021978142 0.0028973864
000380 e9 f2 1c be c2 e1 d0 bd 52 37 db 3b b8 5b 54 bd
       -0.15327038 -0.1019931 0.0066899443 -0.051845282
000390 d2 2a 21 3d fb bc 37 bc 67 46 b0 3d e3 b1 f3 bc
       0.039347477 -0.01121449 0.08607178 -0.029747909
0003a0 5a d8 95 bd e8 53 26 bc 83 44 e7 3c b9 07 01 bd
       -0.073166564 -0.010151841 0.028230911 -0.031501506
0003b0 1d fc 57 3d d8 fb c4 bc d9 09 a9 3c 18 46 3e be
       0.05273067 -0.02404587 0.020634579 -0.18581426
0003c0 2c a1 04 be 36 c6 9f bc 50 13 ee 3d cd 5f 4d bd
       -0.12952107 -0.019503694 0.11624777 -0.05014019
0003d0 ec 1f d0 bd 98 6d 0b 3d 99 a4 1f bd 02 3a 98 bd
       -0.101623386 0.034040064 -0.038975332 -0.07432939
0003e0 40 57 7c 3c 4c b4 54 3d ee df 76 3c 9f 80 a0 3d
       0.015401661 0.051929757 0.015068037 0.078370325
0003f0 4e 45 47 bc 38 02 1f 3e 90 11 b1 3d a8 35 5e be
       -0.01216252 0.1552819 0.08645928 -0.21700156

decoder.2.bias f4 [16]
000000 dc d7 27 be 59 fa 48 3b 9a d6 26 bc d8 a5 fd 3c
       -0.16390938 0.0030666797 -0.010183001 0.03096287
000010 83 74 a9 bd 6e a0 6b bd 3f 58 44 bc fb b1 1b bc
       -0.08274176 -0.057526045 -0.01198393 -0.009502883
000020 47 f9 27 3a 6e f0 2b bd 42 ea ae bd c1 f4 22 be
       0.00064076897 -0.04197734 -0.08540775 -0.15913679
000030 2a 62 ba 3d 9a 6c 26 bd 63 1f d4 bc 46 c7 ef bd
       0.091007546 -0.040630914 -0.025893873 -0.1170793

decoder.4.weight f4 [16, 3, 3, 3]
000000 17 bd 59 3e 00 a6 ae 3e 6e 65 2b 3e 73 4d 9c 3c
       0.21263538 0.34111023 0.16737911 0.0190799
000010 99 fb 15 3d 92 48 8d 3c 06 dc f2 bd cd 47 3f be
       0.036616895 0.017246518 -0.118583724 -0.18679734
000020 2f 1b b7 bd 7d 94 4f 3e cb 19 a9 3e 6f 83 24 3e
       -0.08940732 0.20271488 0.3302749 0.16065763
000030 c2 d0 d5 3b 82 e6 b3 3c b8 d4 c8 3b 9f b6 00 be
       0.00652513 0.0219605 0.0061288737 -0.12569664
000040 c1 d3 49 be 85 a9 c7 bd a1 69 52 3e ba c5 a9 3e
       -0.19709684 -0.0974913 0.20548107 0.33158666
000050 e1 24 25 3e 66 b7 3c 3c b2 b7 ed 3c 56 17 47 3c
       0.1612735 0.011518335 0.029018257 0.01215156
000060 68 b2 fa bd 3d a9 43 be 91 28 bd bd 51 0b 87 3c
       -0.122410595 -0.19107528 -0.09236253 0.016484888
000070 fc 03 6d bd dc e2 cd bd 88 93 a1 bd 26 0f 9c be
       -0.057865128 -0.100530356 -0.078894675 -0.30480307
000080 de 10 90 be b3 de 0a be f8 80 9e be 25 bb 54 be
       -0.2813787 -0.13561516 -0.3095777 -0.20774515
000090 e3 6a 95 3c ff a7 70 bd 79 73 d2 bd e4 9e 9e bd
       0.018239444 -0.058753964 -0.10275931 -0.0774515
0000a0 15 98 9b be 91 90 91 be 2a 96 06 be 65 fe 9e be
       -0.30389467 -0.28430608 -0.1314322 -0.31053463
0000b0 4f d2 57 be ee f3 c9 3c 57 de 3a bd 3d 65 c7 bd
       -0.2107632 0.024652448 -0.045622196 -0.097361065
0000c0 b4 f1 80 bd 01 60 8d be 94 cb 87 be 7a 81 fa bd
       -0.06296101 -0.27612308 -0.26522505 -0.12231727
0000d0 4f 4a 95 be 05 4e 4c be 2f 78 b0 bb 56 1b 87 3d
       -0.29158255 -0.19951637 -0.0053854208 0.06597011
0000e0 a3 bc af 3d 8d 0b b8 3d 17 88 9c 3d 97 7a f5 39
       0.085809015 0.08986578 0.076431446 0.00046821378
0000f0 da ea 33 3e a2 ac d4 3d 91 2f 3e bd 9e fd a7 3c
       0.17570058 0.103844896 -0.04643208 0.020506676
000100 eb c6 e6 3d 68 64 e1 3d 43 d4 0a 3e 0e be 29 3e
       0.11268409 0.11005479 0.13557534 0.16576406
000110 3d 0b 49 3d 14 49 4c 3e d9 12 1c 3e eb 46 9a bc
       0.049082983 0.19949752 0.15241565 -0.018832644
000120 21 f2 d5 3c fe 6d 01 3e b1 1a e8 3d 9d 5f 1c 3e
       0.026116433 0.12639615 0.11333216 0.15270849
000130 3c 81 50 3e 8e 5b 88 3d 74 cd 56 3e e7 91 31 3e
       0.20361799 0.06658088 0.20976812 0.17340814
000140 e6 67 f4 bb cb c5 9d bd ce 8f 04 3d f0 6c a7 3d
       -0.0074586747 -0.07703742 0.032363705 0.08175075
000150 d3 db df bc cb 95 4b 3e 0a c9 4c 3e 9e 14 64 bd
       -0.0273265 0.1988136 0.19998565 -0.055683725
000160 db f6 e3 3c bd 1b 3c 3d e1 e8 8b bd fe 58 51 3d
       0.02782767 0.04592489 -0.068315275 0.05111026
000170 d5 d5 b8 3d 30 84 ef bb 36 e1 74 3e ed c1 62 3e
       0.0902516 -0.007309459 0.23914036 0.2214429
000180 b7 49 3d bd de ed 47 3d 47 9b 70 3d 03 d4 7a bd
       -0.046212878 0.048810832 0.058741834 -0.061237346
000190 33 55 81 3d dc 3e c4 3d 3e 05 bc 3b ba 4f 86 3e
       0.063150786 0.09582302 0.0057379296 0.26232702
0001a0 30 89 6e 3e 9a f7 1f bd 53 92 7b 3d 20 ed 82 3d
       0.2329452 -0.03905449 0.061418843 0.06392884
0001b0 e9 75 9a be 32 df 0e bf 07 c8 a5 be 96 42 9b be
       -0.30168083 -0.5580932 -0.3237917 -0.3032424
0001c0 5f cd 24 bf 39 59 ed be d6 94 04 be 09 7e 87 be
       -0.6437587 -0.46357134 -0.12947401 -0.26463345
0001d0 98 70 76 be 1c 05 9c be 78 38 0f bf 47 9f a9 be
       -0.24066389 -0.30472648 -0.5594554 -0.3312933
0001e0 85 7b 9b be 8a 44 26 bf 5d 20 f2 be e3 93 07 be
       -0.30367675 -0.6494833 -0.47290316 -0.13240008
0001f0 2b 36 8b be 0b ff 82 be 5a ca 8e be eb 19 07 bf
       -0.27189764 -0.25585207 -0.27888757 -0.5277392
000200 17 d3 9a be f8 f2 8b be ac 36 1c bf 21 9c df be
       -0.30239174 -0.27333808 -0.6102092 -0.43673804
000210 8b 6d da bd 28 17 79 be b6 9f 64 be e7 9c 29 be
       -0.10665425 -0.2432524 -0.2232655 -0.1656376
000220 9e 46 5f be 31 a0 0d 3d b0 70 da 3c 50 c8 de 3c
       -0.21804282 0.0345766 0.026665062 0.027195126
000230 5b dd 2d 3e 1f 7f c2 3e 21 a2 03 3f 46 d7 9e 3e
       0.16978972 0.3798761 0.51419264 0.31023616
000240 62 02 19 be 7a 60 44 be f7 ab 52 3d ff af 4c 3d
       -0.14942315 -0.19177428 0.05143353 0.04997253
000250 a8 e4 9a 3d 31 6c 4c 3e 1e 8d c9 3e f1 0b 0b 3f
       0.07563144 0.19963147 0.39365476 0.54315096
000260 c5 e3 a7 3e bc 01 11 be ee 25 2a be 52 93 7e 3d
       0.32790962 -0.14160818 -0.16616032 0.062152214
000270 c3 7d 84 3d cc 3a e8 3d 5e c5 60 3e 63 ea ce 3e
       0.064693 0.113393396 0.2195029 0.40413198
000280 33 54 10 3f 36 48 af 3e 68 a6 f2 3c 3c 4f 13 be
       0.5637848 0.3423478 0.029620364 -0.14385694
000290 31 de 41 be 4c 3b 5e bd 1d b9 c7 be 4c c0 cc be
       -0.18932416 -0.05425577 -0.39008418 -0.3999046
0002a0 ae 74 3f bb ce 76 51 be 14 f5 60 be bb 90 e2 3c
       -0.0029213834 -0.20455477 -0.2196849 0.027656903
0002b0 73 e5 19 be 59 43 45 be fa 1c 84 bd 21 36 d4 be
       -0.15028934 -0.19263972 -0.06450839 -0.41447547
0002c0 03 64 d4 be 2a 41 be bb b3 4d 5f be 19 45 69 be
       -0.41482553 -0.005806108 -0.21806984 -0.22780265
0002d0 7e 11 d4 3c 50 9f 18 be f8 7e 41 be b4 09 90 bd
       0.025887247 -0.14904523 -0.18896091 -0.07033101
0002e0 7f 36 d4 be fb 98 d3 be 6b 88 10 bc 86 10 5b be
       -0.41447827 -0.41327652 -0.008821587 -0.21393022
0002f0 ce 28 66 be 01 ba 06 3d 88 b8 ee bd 9d 01 1e bd
       -0.22476503 0.03289223 -0.1165629 -0.038575757
000300 5a 3c c8 be 8a c0 4e bf be a4 07 bf 4e e6 c3 be
       -0.39108545 -0.8076254 -0.5298575 -0.38261646
000310 a9 2a 3c bf 8e 33 f6 be db 63 9a 3c 67 ac 1a be
       -0.73502594 -0.48086208 0.018846443 -0.15104829
000320 09 e2 63 bd f5 ef d7 be 38 56 5c bf 3b d7 12 bf
       -0.055635486 -0.4217526 -0.8606906 -0.57359666
000330 60 08 d3 be c3 48 49 bf 20 6a 06 bf 68 fe 8d 3c
       -0.41217327 -0.7862665 -0.52505684 0.017333224
000340 28 df 15 be b8 7c 53 bd fc 19 c7 be df 33 50 bf
       -0.14635909 -0.051632613 -0.38887012 -0.8132915
000350 b3 38 08 bf 1e 3f c1 be 83 5a 3d bf 3c 32 f7 be
       -0.53211516 -0.37743467 -0.73966235 -0.48280513
000360 e4 bd 9b be e6 97 11 bf ab d9 d9 be 57 7a 9a be
       -0.30418313 -0.56872404 -0.4254888 -0.30171463
000370 9a a9 64 bf 32 2f 49 bf 5a df 5e be 3d fd 42 bf
       -0.8932129 -0.7858764 -0.2176489 -0.7616766
000380 74 cd 1c bf ea cd 32 be de 11 c6 be 39 98 6b be
       -0.61250997 -0.17461362 -0.38685507 -0.23007287
000390 d6 d0 04 be 61 7f 3d bf 4d 0a 2e bf 5a 77 f3 bd
       -0.1297029 -0.7402249 -0.6798447 -0.11887999
0003a0 07 8d 32 bf 38 14 15 bf c8 8b 54 bd a0 04 54 be
       -0.6974644 -0.58233976 -0.05189112 -0.2070489
0003b0 d6 60 a7 bd 3a 90 b9 3d 61 cc e9 be cf c8 d9 be
       -0.08172767 0.09060712 -0.4566374 -0.42536017
0003c0 6b b7 c1 3d cb 14 e4 be cb 5e ae be ae cb 94 be
       0.09458812 -0.44547114 -0.34056696 -0.29061645
0003d0 8c 56 a3 be 8f 6e c9 bd c1 66 e3 bb d0 a9 61 3e
       -0.31901968 -0.098355405 -0.0069397395 0.22037435
0003e0 29 89 90 3e e1 2d 68 3d de 29 71 3e 07 ad 56 3e
       0.28229645 0.05668438 0.23551127 0.20964442
0003f0 cd 5c 96 be 1e 4e a4 be 7b 61 cb bd ee b9 ef bb
       -0.29367676 -0.3209085 -0.09930702 -0.0073158657

decoder.4.bias f4 [3]
000000 7d 5c 3c 3d d3 28 4f 3d 5c 7e 48 3d
       0.04598664 0.050576042 0.04894863
