checkpoints/lowest_loss_ae.pt (torch, 65762 bytes, 12 tensors)

encoder.0.weight f4 [8, 3, 3, 3]
00000000: 3988 6135 13f0 c8b2 f7ec 6832 0607 b3b5
00000010: 3d71 e6b5 67ad 7935 3beb 73b5 7615 6335
00000020: 17e0 aab4 e5fb 43b5 1bfb b0b5 221e bcb5
00000030: 0bf5 9235 1f97 8235 31ea e1b5 5f11 6eb5
00000040: dbc1 c7b5 3a86 9db5 4e61 d334 6f3f 16b5
00000050: 0782 e5b5 2493 90b5 38f9 bc35 7988 f1b3
00000060: 16d1 ff33 67c3 db35 6ff0 27b5 f117 e23d
00000070: c3ac c53d da4a 4b3e 7402 3e3e 24b3 083e
00000080: 5d71 303e 2bf4 343e 3a7b 8d3e a677 7d3e
00000090: 6b90 57bd 0b3d 03be e40b 8cbc 2816 043d
000000a0: ef67 46bd 73a2 00bd a6b0 843c 9a72 e23d
000000b0: cfd7 883d a8a2 4fbe f542 72be ef29 11be
000000c0: 3de8 c4bd 2bff 27be 40bc 25be 82cf 4dbd
000000d0: e2a1 e43c 0b39 22bd 9102 4ebe 0f5a cebe
000000e0: 8714 50bd 14f1 ae3b d9dd ffbd 66b3 eb3d
000000f0: 8023 9a3e fdf5 acbd 6d03 99bd aa6a a1bd
00000100: c09d afbe 3826 09be e7a5 843c db1f 3cbd
00000110: 2f03 e33d 070b 9d3e a0de 0f3e 92c9 373e
00000120: 9a3d bfbd 2905 09be 9b98 15bc 8ef9 16be
00000130: d6c0 4f3c 4717 1e3e 933a 023d a08e 613e
00000140: 08b2 273e 04d7 36bd 0d95 42bd 4040 e2bd
00000150: d0e3 d9bd c7f3 49bd 8a04 e1bd c859 8d3e
00000160: c394 ab3e e626 8dbd 0f61 ad3c 6ca6 843c
00000170: 3c00 5bbd 38c8 4dbd 94d0 1ebc 5078 59bd
00000180: d6d6 a23e c405 c13e 4a4c 42bd 9302 9e3d
00000190: 8f0c 993d 3888 983c 2910 02bd a2a5 343a
000001a0: e9d7 75bc b53e d23e 0a50 de3e 9dc1 98bc
000001b0: 329c 3b3d 065b 9d3e 1707 9e3e 08d2 a5bc
000001c0: e4ef 063e 950e 973d dc20 a83c 4811 463d
000001d0: d1b6 83bd d335 5f3d 8703 a23e 83df a63e
000001e0: 37be 67bd 712e cb3d a802 873d e281 9bbc
000001f0: 2560 563c b0ce 77bd 6d93 4f3d 38db 963e
00000200: 4bee 893e f462 afbd 2b2b 703d 9fe8 87bc
00000210: 2a3b b6bd 070f 85bd dbfc 1fbe 22ad 3b3d
00000220: 9431 3ebd 936e 82bc c029 8a3e 0f59 e23d
00000230: d50a 30bd 2658 2f3e 791b 9ebd 584d ddbd
00000240: c775 ce3d 0108 993a 893c 0d3d f0d6 a03e
00000250: 8eb7 153e aae4 ed3b 0bd7 4b3e f72d 81bd
00000260: ac2d 7ebd d462 253e bb86 eb3c 7913 893d
00000270: 9117 c13e 7259 403e 986c 4d3d fc14 7d3e
00000280: 393b 5ebd 18f4 94bc d55d 22be 295d bb3d
00000290: 7716 27be f3f7 843c 44c6 1b3f 7762 3a3e
000002a0: 3143 77be 0e59 bd3d bb48 82bd d058 cabd
000002b0: 57bc ec3d f762 3bbe 6709 af3d d5f7 2e3f
000002c0: 01a1 733e 2140 53be 1d35 123e 1313 c6bc
000002d0: c8bf 65bd 6733 283e 6a40 46be 4f19 143e
000002e0: b0c2 3a3f 3b56 683e 5815 32be ca9e 263e
000002f0: 2efe 8cbc d826 803d 4734 03be 58d8 37bd
00000300: 2943 4c3d 2584 df3d 4a5f c03e aebc 893d
00000310: 01bd babc 8597 cf3d f05f 613d 58dd d0bd
00000320: e8a5 513d 1d19 9cba 4838 883d c7a3 cb3e
00000330: 0c49 393d bb65 e5ba 4fa8 143e dc99 9abb
00000340: d6a1 68be 1b4f 4d3d 9a6e b2bd 208e 44bd
00000350: d52b d13e 9100 d4bc 8691 1ebe e871 613d
8.401726e-07 -2.3392237e-08 1.3558057e-08 -1.3338583e-06 -1.7169292e-06 9.301206e-07 -9.086686e-07 8.459532e-07
-3.1828014e-07 -7.3009716e-07 -1.3186103e-06 -1.4015861e-06 1.0949165e-06 9.729737e-07 -1.6831965e-06 -8.868719e-07
-1.4883075e-06 -1.1736477e-06 3.937261e-07 -5.597166e-07 -1.7099673e-06 -1.077166e-06 1.4079624e-06 -1.1247261e-07
1.1912395e-07 1.6373641e-06 -6.2562225e-07 0.11039723 0.09652092 0.19852772 0.18555623 0.13349587
0.17230745 0.17671268 0.27633077 0.24752674 -0.052627962 -0.12816255 -0.017095514 0.032247692
-0.048438963 -0.031404924 0.016197514 0.11057015 0.06681787 -0.20276892 -0.23658355 -0.14176153
-0.096146084 -0.16405933 -0.16185093 -0.050246723 0.027909223 -0.03960518 -0.20118167 -0.40303084
-0.050800826 0.0053387973 -0.12493486 0.11508827 0.3010521 -0.08445356 -0.074713565 -0.07881673
-0.3430004 -0.13393486 0.01619239 -0.045928817 0.110845916 0.30672476 0.14049768 0.17947987
-0.093379214 -0.13380875 -0.009130622 -0.14743635 0.012680253 0.15438567 0.031794142 0.22027063
0.16376507 -0.04463865 -0.047505427 -0.11047411 -0.10639155 -0.04930475 -0.10987194 0.2760756
0.33511934 -0.06892185 0.021164445 0.016192637 -0.05346702 -0.05023977 -0.009693284 -0.053093255
0.31804532 0.3769971 -0.047436036 0.07715335 0.074730985 0.018619642 -0.031753693 0.0006891136
-0.01500509 0.41063467 0.4342044 -0.01864701 0.045803256 0.30733508 0.30864784 -0.020241752
0.13177449 0.07375828 0.020523481 0.048356324 -0.06431354 0.05449469 0.31643316 0.325924
-0.056577887 0.09920967 0.065923035 -0.018982831 0.013084446 -0.060499847 0.050677706 0.29464126
0.26939616 -0.08563796 0.05863492 -0.016590415 -0.088980034 -0.06497007 -0.156238 0.04581941
-0.046434 -0.015921867 0.26984978 0.11052143 -0.04297908 0.1712347 -0.07720084 -0.10805768
0.10081058 0.0011675359 0.03448156 0.31413984 0.14620802 0.007259925 0.19906251 -0.06307595
-0.062055275 0.16150981 0.028750768 0.06693167 0.37713292 0.1878412 0.05015239 0.24715036
-0.054255698 -0.0181828 -0.15856107 0.09148628 -0.16317163 0.016231513 0.60849404 0.18201624
-0.24146725 0.092455015 -0.063615285 -0.09880221 0.115593605 -0.18299471 0.08546715 0.6834691
0.23791887 -0.20629932 0.14278074 -0.024179017 -0.0560911 0.16425858 -0.1936051 0.1446278
0.7295332 0.22689144 -0.17390954 0.1627151 -0.017211046 0.06257409 -0.12812911 -0.044884056
0.049868736 0.109138764 0.375727 0.06725441 -0.022795202 0.10136322 0.055023134 -0.10198468
0.05118361 -0.001190934 0.0665136 0.3977339 0.04523568 -0.0017501632 0.1451733 -0.0047180485
-0.22717986 0.05012427 -0.08712502 -0.047987103 0.40853754 -0.025879176 -0.154852 0.05504027

encoder.0.bias f4 [8]
00000000: 5134 b7b5 6f8e 1e3e e4d3 973d 5382 2f3e
00000010: 38f3 313c 4e63 1e3d c9bd fd3d a4e7 7dbd
-1.3649789e-06 0.15484022 0.07413462 0.17139558 0.0108612105 0.038668923 0.12389714 -0.061988488

encoder.2.weight f4 [16, 8, 3, 3]
00000000: 94d3 0fb5 4794 f3b3 2dba bcb4 cbbd 3eb5
00000010: bb41 43b5 0168 5eb4 6aba 18b5 43a0 91b5
00000020: 709a 75b5 b4bd 4a3d a13d 81bd 51f4 93be
00000030: d65c 64bd 2c12 70bd 2e14 c53d 9a1c cc3c
00000040: a7b6 023c 6e36 21bd d81e 543c f526 3fbb
00000050: b5f4 30bd ef0d 78bc 2669 3fbc 1ea0 0bba
00000060: 8e05 703d de47 e2bc 56ec 5ebd cf79 f23d
00000070: 4051 803c b8f8 adbd f526 34bd 76a5 bf3c
00000080: b75b 683e 7398 643d 96fa 883b fe6d c73d
00000090: 9d78 6d3d f7fb f2bd de46 643e c0ff 80bd
000000a0: ec41 73bc 817c c93c f740 d3bd 48e1 913d
000000b0: 4472 84bd 7e54 e238 04e1 983d 008a e33d
000000c0: 382b 0dbd 95ae c4bd 86fc 553e 3e55 103e
000000d0: 504b 503b 8035 4dbc ba61 633d 8a1c 35be
000000e0: c499 293e 9f81 63be 0b5f 643e 53f6 c63d
000000f0: 60a9 d93d f8dc 09be 1191 aabd 2383 923d
00000100: a0b1 ccbd 1612 2d3e 39a7 1fbe 8215 6b3e
00000110: 65c3 72bd 0582 0e3d aa3a 6fbd d66e e2bd
00000120: 5d1c f2b4 4eac 8c34 cd12 6db5 912a 2835
00000130: 088e c7b4 76f3 9235 0c5c f7b4 4424 f4b3
00000140: f79e 81b4 95ea 8fb9 7362 14b9 851a 4bb8
00000150: 03ff e3b9 c6f5 72b9 bbd0 d0b9 f47d 7ab9
00000160: d10e 82b9 8d33 a6b8 2954 0eb9 1381 1eba
00000170: a336 e3b9 d76d 96b9 e9bf deb9 ee32 59ba
00000180: 112e bab9 1141 40ba cfef 02ba f0e9 0eb9
00000190: e9b9 94b9 4819 1fb9 bc80 13b9 1404 de37
000001a0: c622 deb8 36e0 69b7 5627 55b9 54c5 46b9
000001b0: 99f8 f337 ea5e 00b9 8f23 b3b9 813f a6b9
000001c0: 42b0 18b9 8239 14b9 87f2 a1b9 09dc aeb8
000001d0: db7c 23b9 0335 2ab9 5d9c 4cb9 a183 bfb8
000001e0: a841 27b9 29ef 70b9 67a6 46b9 9a93 6db9
000001f0: 1485 3eb8 f0f9 d0b8 43ba bfb7 8254 06b6
00000200: b58e 8db8 0fb1 3fb9 bc82 32b9 194e 40b9
00000210: bec3 3cb9 5c0f 84b9 2256 34b9 5ac0 3ab7
00000220: 26ba 4db9 29ce efb8 1f53 0ab9 669e 26b9
00000230: 9289 30b9 e798 83b8 9c34 06b9 091f 2ab9
00000240: b327 94b4 3208 81b2 c821 7035 fffd 8435
00000250: f917 8635 bcac 47b4 0ce5 42b5 4129 0234
00000260: 12f0 6335 c26a 8bbc 6e48 593c ce0a d53d
00000270: a01c bc3d 0c06 53be 94c9 18be 5732 a8bd
00000280: 13cf 0dbd 4945 ab3d 3b5f debc 44a0 623d
00000290: 6d8b 723d ecc2 89bb 1277 1f3d 218a c4bb
000002a0: a32f 443c 699c 983d cd9a 823d e654 f2bb
000002b0: 79cf 863d 952d 213e 92b9 2137 d6b8 743d
000002c0: eec5 1ebe a304 a8bd b352 023d cea1 68bc
000002d0: 949f 353e f6c2 35bd 067a c7bc 787c cebd
000002e0: 1ab8 953d 4135 563d 4869 1cbc b154 813d
000002f0: b913 733d 42f7 483e 5b2f 0a3d 0fc4 3abc
00000300: f569 0fbe 3a31 a8bb 6abc 51bd f70b 383e
00000310: ae97 f33d 3cc4 823d 5cd4 403e 32b3 30bd
00000320: 7358 5abd 9b6b 99be 5bfd 233d 8aaa d4bd
00000330: 5e64 663d 6d4f 8b3e 7356 dd3b 605c a23d
00000340: c946 75bc 52a6 bdbd 8b83 d6bd 51f2 3dbe
00000350: 6edf a23d b76a 993d 6642 87bc 2adb 553d
00000360: cd5d 2834 74f9 4435 93dd 6fb5 7c5e 2a35
00000370: 7085 cfb4 ec55 4cb5 8701 bc32 1880 9235
00000380: c592 2835 9b41 a73c 46b3 a83d 7cf3 81bd
00000390: 5ca3 533d 97bc c1bd b357 90be 49b7 44bd
000003a0: c4bf 703d 0d5c 303b c6fe 363c e8ff 963d
000003b0: 095b ab3d f210 783c 5319 923c b34f a4bc
000003c0: 4818 38bc d4b0 a53d b6e5 483d c5b4 a0bc
000003d0: 8c18 103e 66b6 b83e 1c41 fa3c c2ad c9bd
000003e0: 3a01 cdbc 721b 41bd e6ad a4bd f630 29bd
000003f0: 6828 3cbc 8483 fabd 2d6a 013e 1f65 913d
-5.357954e-07 -1.1342541e-07 -3.515319e-07 -7.10567e-07 -7.273881e-07 -2.0713198e-07 -5.689568e-07 -1.0849984e-06
-9.149435e-07 0.04949732 -0.06310583 -0.28897336 -0.055752598 -0.05861108 0.096229896 0.024915982
0.007978118 -0.03935855 0.012946807 -0.0029167507 -0.04320212 -0.015140041 -0.011682784 -0.00053262885
0.058599047 -0.02762216 -0.054424606 0.118396394 0.015663743 -0.08494705 -0.043982465 0.023394328
0.22691236 0.05580945 0.004180263 0.09737776 0.057976354 -0.11864465 0.22292659 -0.062987804
-0.01484726 0.0245955 -0.103151254 0.07123047 -0.06467107 0.00010792258 0.07464793 0.11110306
-0.034465045 -0.096036114 0.20897111 0.14095017 0.003178317 -0.012524962 0.05551312 -0.17686668
0.16562563 -0.22217415 0.22301881 0.09714951 0.10628009 -0.13463199 -0.083284505 0.071539186
-0.09994817 0.1690143 -0.15591134 0.22957423 -0.059268374 0.034791965 -0.058405556 -0.110562965
-4.509665e-07 2.62024e-07 -8.831674e-07 6.264682e-07 -3.716998e-07 1.0948704e-06 -4.6074308e-07 -1.1368732e-07
-2.4143785e-07 -0.00027449863 -0.00014151055 -4.842367e-05 -0.00043486813 -0.00023170476 -0.00039828368 -0.00023888779
-0.0002480657 -7.925099e-05 -0.00013573527 -0.0006046455 -0.00043337521 -0.00028692067 -0.00042486124 -0.0008285482
-0.00035511007 -0.00073339144 -0.0004994841 -0.00013629324 -0.00028367274 -0.0001517284 -0.0001406697 2.6466361e-05
-0.00010592262 -1.3940085e-05 -0.00020327917 -0.00018956262 2.908362e-05 -0.0001224239 -0.00034168034 -0.000317093
-0.00014561511 -0.00014135803 -0.0003088901 -8.337951e-05 -0.00015591404 -0.00016232212 -0.00019513206 -9.1321075e-05
-0.0001595082 -0.00022977278 -0.00018944741 -0.00022657067 -4.542347e-05 -9.9647674e-05 -2.285571e-05 -2.0016746e-06
-6.749985e-05 -0.00018281139 -0.00017024105 -0.0001833964 -0.00018001997 -0.00025188446 -0.00017198225 -1.1131249e-05
-0.00019619669 -0.000114348084 -0.0001319167 -0.00015890002 -0.00016835917 -6.275047e-05 -0.00012798834 -0.00016224025
-2.7596033e-07 -1.5021303e-08 8.9456125e-07 9.908689e-07 9.990755e-07 -1.859616e-07 -7.260394e-07 1.2122202e-07
8.491344e-07 -0.01701868 0.0132618975 0.104024515 0.09185147 -0.20607775 -0.14920646 -0.082127266
-0.03462131 0.083628245 -0.027145019 0.055328622 0.059214998 -0.0042041447 0.038931914 -0.0059979116
0.011974248 0.07451708 0.06377182 -0.0073953746 0.06582541 0.15740044 9.639554e-06 0.059746586
-0.15505192 -0.082040094 0.03181715 -0.0141987335 0.17736655 -0.044375382 -0.024350177 -0.10082334
0.07310505 0.05229688 -0.009546585 0.06314982 0.05934498 0.19625571 0.033736568 -0.011399283
-0.14005263 -0.0051328214 -0.051205076 0.17973314 0.11894165 0.06385085 0.18831009 -0.043139644
-0.053307008 -0.2996491 0.04003654 -0.1038409 0.05624806 0.27209035 0.0067546903 0.079277754
-0.01497049 -0.09260239 -0.104743086 -0.18549468 0.07952772 0.07491057 -0.016511153 0.052210964
1.5680344e-07 7.337869e-07 -8.935687e-07 6.346743e-07 -3.8653843e-07 -7.6120955e-07 2.1886775e-08 1.0915128e-06
6.2798455e-07 0.020417025 0.08237319 -0.06345269 0.051669464 -0.09459799 -0.2819191 -0.048026357
0.058776632 0.0026910335 0.011169141 0.07373029 0.08366973 0.015140759 0.017834341 -0.020057535
-0.011236258 0.08090368 0.049047194 -0.019617448 0.14071864 0.3607666 0.030548625 -0.09847595
-0.025024999 -0.047145315 -0.08040981 -0.04130646 -0.011484243 -0.12232116 0.12638159 0.070993654

encoder.2.bias f4 [16]
00000000: c0b9 173e 6125 07b9 a17c 203e bef1 d83d
00000010: affe 99b5 c76d 183d 8109 02b7 a173 e03d
00000020: dc0d dcbd 31af 30be c80c 123d 622a 913d
00000030: 8a3a 2cb7 3667 b6be cad1 173d 50ed 91bd
0.14816952 -0.00012888528 0.15672542 0.10592984 -1.1473511e-06 0.037214067 -7.750817e-06 0.109595545
-0.10744831 -0.1725433 0.03565672 0.07088162 -1.0265629e-05 -0.3562562 0.037065305 -0.07125342

encoder.4.weight f4 [8, 16, 7, 7]
00000000: b953 173d ae77 89bd c6ba eebd 3b98 303d
00000010: 8fe8 003d 8cc0 eaba 516b 033b aae5 d8bc
00000020: 0a3b cdbd 87cb 1bbe 9913 4c3d fa3e 573d
00000030: 581b cf3c c621 e23c 78b8 d53c b82d 2f3d
00000040: 8f81 38bd f798 4abd 34a5 bd3c ad7a 753c
00000050: 2a64 8fbc 40e0 293b bc67 8abc db3c 2bbe
00000060: 6e40 99bd fcc2 c3bc 218e cabb accc f2bc
00000070: 3bd8 633c 61e8 0e3d f625 e4bb f4a1 a93d
00000080: 6970 84bd 94b3 6dbd 37f8 3e3c f169 dd3c
00000090: 8057 ae3c 9932 1bbc c4d9 c03c cad9 6fba
000000a0: a7cc 123c ef6a bdbc 55fd c4bb 2684 cd3b
000000b0: b98b 08bd b6b8 703c 3558 bfbc 0438 dbbb
000000c0: 84ec 213c fc48 90b9 2e86 51b9 73b6 8bb8
000000d0: 484a 31b9 c655 04b9 920d e5b8 93d4 0db9
000000e0: a3f1 91b9 4cba 89b9 479d 9db9 5098 43b9
000000f0: 9bac 7eb9 18cd 4eb9 c18d 20b9 3343 92b8
00000100: 604c 67b9 50f1 d5b8 dfcc 3237 ca6c 4cb9
00000110: a815 0eb9 6f12 28b9 c7e3 94b8 a767 98b7
00000120: 1b08 beb8 43c4 8cb8 28dc 8eb9 885c 17b9
00000130: f9b6 44b9 5712 13b9 335a e2b8 fc94 adb9
00000140: 8456 7638 8cbf 5eb9 7463 a6b8 86d5 2db9
00000150: 2600 beb8 2b60 97b9 d7f6 44b9 2883 e3b8
00000160: 93b5 0238 d736 2438 1212 c6b8 6e15 4eb7
00000170: d59c 9ab9 279b 27b9 998d eeb8 66aa f5b8
00000180: a378 0bb9 5fa6 06b8 e244 e0bc 428f b2bc
00000190: f40f 6d3d d8f0 9e3d 8845 1839 b342 03bd
000001a0: 73fc 313b 8f1a b83d 83a2 733d fc2e 22bb
000001b0: 99e5 0bbe 4339 a5bd 10a0 6cbc 67b6 693c
000001c0: dab0 b6bd d54f 843d b11d f6bd dd76 253e
000001d0: f30d 01bd 7cca 453d 84b5 293c 93a1 4abc
000001e0: 1537 0bbb 0504 a5bc 32ff 32bd 812b e23d
000001f0: 5b11 29bd c1c9 16bc 3480 7abb 00d7 053d
00000200: 3f11 733c 715a 39bd de86 8bbb 4f36 c5bd
00000210: ff0b c1bb d0a4 0ebc 59c8 2e3c f698 eebc
00000220: adba 0a3d 214b 5f3d eda5 57bc c972 1a3c
00000230: 0c41 5bbc 4875 863b f4f0 aebc 03bb c5ba
00000240: fa58 613c 578c cb3b 8af2 b7ba 51a6 433d
00000250: 6d2f 4b3d 8811 09bd bff8 d0bb 18d0 e6bc
00000260: 8f9d b23b 231b d4bb 7533 8dbc ef0e 27be
00000270: 998b c4bd f2c7 983c e790 9bbb 70dc 873c
00000280: 6c26 74bc c691 3c3d 7f3f 3ebd 9035 823e
00000290: a661 c4bb 17ba 953d 5995 3fbd fa60 383c
000002a0: fec4 513d 38f7 94bd 7d21 853d 74cf 9b3d
000002b0: 20a4 0e3e 3df9 e73b f7b5 473d 0a6e 86bd
000002c0: ed90 efbc f71a 95bc 6690 27be 542c dbbc
000002d0: 5395 e7bd 8261 ecbb 3ab5 783c 4c31 88bb
000002e0: bc3e a5bb 9165 86bd 43a2 86bd ba7d 6e3a
000002f0: 30c2 e9bb 366a 193c 7ad8 07bd 0cbe 4dbb
00000300: f934 9a3b a9c5 9438 d628 1bbc 8c47 fbbb
00000310: 839b b234 5f80 ed33 337a 9b33 cfcf b634
00000320: bcc2 1c34 f555 9e32 4dfe bb33 0d00 a434
00000330: 209f c1b3 2c89 e932 c152 d333 f0a5 76b2
00000340: ea67 02b4 a455 712f 4a98 9733 e9df 2333
00000350: 55d5 81b4 05df 8933 e60b 2b34 c54b 1834
00000360: cbb5 ce32 507a 5db4 c977 b4b4 264d b3b3
00000370: 5ec5 7c32 21c9 df32 9fd0 deb3 e0a8 4134
00000380: f8ac e2b3 07ba e930 79d7 edb3 8905 02b4
00000390: 308c 0534 9073 6833 de4b 2d33 d41b 8b34
000003a0: 218c d833 85bf 9333 b662 96b4 6c8b 0834
000003b0: fa57 7cb4 7fcd 8034 1097 56b4 9ac6 bc31
000003c0: dfc6 86b3 8424 8934 19eb d632 b5a9 6eb3
000003d0: 9dac 6734 2602 0e3c 4e83 f93c f267 c23d
000003e0: f8c6 e9bc e295 b0bc fe9c 243d 6cce f4bc
000003f0: b9c3 2e3d 8b69 ff3b 89f0 2bbc 59ce abbe
0.03694508 -0.0671228 -0.11656718 0.04311393 0.031471785 -0.0017910167 0.002005298 -0.0264767
-0.100210264 -0.15214358 0.049823377 0.052550294 0.025281593 0.027603995 0.026088938 0.04276821
-0.04504543 -0.049462285 0.023150064 0.0149828615 -0.017503817 0.0025921017 -0.016895168 -0.16722433
-0.07482992 -0.023896687 -0.006181494 -0.02963861 0.013906534 0.034889583 -0.006962533 0.08282843
-0.06466753 -0.058032587 0.011655859 0.027028056 0.021281958 -0.009472513 0.023541339 -0.00091495796
0.008959926 -0.023122279 -0.006011645 0.006271857 -0.033336375 0.014692476 -0.02335749 -0.006690027
0.00988305 -0.00027520198 -0.00019981779 -6.66202e-05 -0.00016907707 -0.00012620454 -0.000109220986 -0.00013525998
-0.0002783659 -0.00026269478 -0.00030062554 -0.0001865339 -0.00024287628 -0.00019722094 -0.00015311597 -6.974339e-05
-0.00022058329 -0.000102015794 1.0657327e-05 -0.00019495483 -0.00013550243 -0.00016028596 -7.099617e-05 -1.8168079e-05
-9.061416e-05 -6.712277e-05 -0.0002724838 -0.00014434953 -0.00018760179 -0.00014025845 -0.00010793321 -0.00033108133
5.8731544e-05 -0.00021242927 -7.9340214e-05 -0.0001657811 -9.059934e-05 -0.00028872615 -0.00018783972 -0.00010848633
3.116352e-05 3.915172e-05 -9.4447416e-05 -1.2283546e-05 -0.00029490018 -0.0001598416 -0.00011375099 -0.000117142496
-0.00013301014 -3.2103035e-05 -0.027376596 -0.021796826 0.057876542 0.07760781 0.00014521752 -0.03204603
0.0027158528 0.08989441 0.059481155 -0.0024747243 -0.13661803 -0.080675624 -0.014442459 0.0142646795
-0.089204505 0.06460539 -0.12017382 0.16158624 -0.031507444 0.048288807 0.010358218 -0.012367624
-0.0021242548 -0.020143518 -0.043700404 0.11043454 -0.041276317 -0.009203375 -0.0038223388 0.032675743
0.014835655 -0.045252267 -0.004258021 -0.09629499 -0.0058913226 -0.008706287 0.010667884 -0.029125672
0.033869434 0.054515008 -0.013162118 0.009426781 -0.013382208 0.0041033365 -0.02135513 -0.0015085641
0.013754124 0.006211798 -0.0014034074 0.047766034 0.049605776 -0.033463985 -0.006377309 -0.028175399
0.0054509114 -0.0064729615 -0.01723645 -0.1631429 -0.09596939 0.018650029 -0.0047474983 0.016584605
-0.014901739 0.046037458 -0.046447273 0.2543149 -0.005993086 0.073108844 -0.04677329 0.01125359
0.051213257 -0.07273716 0.06500528 0.07607928 0.13929796 0.007079272 0.04875752 -0.06563957
-0.02924391 -0.018201334 -0.16363677 -0.026754536 -0.11307778 -0.0072137723 0.0151799265 -0.0041562673
-0.005042879 -0.06562341 -0.06573918 0.0009097714 -0.0071337447 0.009363702 -0.033165433 -0.0031393794
0.004706022 7.094007e-05 -0.009470185 -0.007668441 3.3268233e-07 1.1059523e-07 7.239978e-08 3.4051342e-07
1.4599476e-07 1.843271e-08 8.754123e-08 3.0547417e-07 -9.0162075e-08 2.7187149e-08 9.840506e-08 -1.4356814e-08
-1.2144997e-07 2.1949248e-10 7.059187e-08 3.815504e-08 -2.4183342e-07 6.420127e-08 1.5929945e-07 1.4183668e-07
2.4064226e-08 -2.0626726e-07 -3.3614768e-07 -8.34937e-08 1.4713207e-08 2.605208e-08 -1.03756285e-07 1.8035962e-07
-1.0555408e-07 1.7005853e-09 -1.1075367e-07 -1.2109207e-07 1.243759e-07 5.4121813e-08 4.0348702e-08 2.5911015e-07
1.0083773e-07 6.880058e-08 -2.80115e-07 1.2716708e-07 -2.3501335e-07 2.3991376e-07 -1.998526e-07 5.4940985e-09
-6.276036e-08 2.5544807e-07 2.5019789e-08 -5.556804e-08 2.1576348e-07 0.008667504 0.030458119 0.09492482
-0.028537259 -0.021555845 0.040188782 -0.029883586 0.042667124 0.007794564 -0.01049436 -0.33555868

encoder.4.bias f4 [8]
00000000: 1a37 23be 912b 7abd 6ded 073d 379b 313d
00000010: c81a 733c cfbc 02be 174c 32be 18fd 143d
-0.15938988 -0.061076704 0.03318541 0.043360915 0.014837928 -0.12767337 -0.17411838 0.03637418

decoder.0.weight f4 [8, 16, 7, 7]
00000000: e510 0d3f 0842 c53e 0fb8 bf3d 9e66 61bd
00000010: c4d5 7cbd d974 81bc bf85 55bb 3364 bfbe
00000020: f0b9 7ebd 16c4 a1bd 13ed 093c 1903 78bd
00000030: 25aa 5fbd 44da 2fbc f248 1b3e edae 82bc
00000040: 39e2 503c 6258 fcbd 2c5e 86bd ed71 83bd
00000050: cff3 a8bc 430f 863d 3a0b 62be db5f 91bd
00000060: c4b3 09bc 7c33 a83b 74f5 aebb 44c5 203a
00000070: e892 28be eca5 c9be 62ee 42bc 2e25 18bc
00000080: 0f0b 343d 91e9 6ebd e625 37bb f080 973e
00000090: 24a5 f13e 97d6 f8bd 64ec 23bd dba0 fa3c
000000a0: 489e 8dbd d29a 273d e144 633e b2c3 c4be
000000b0: 475e 803e f290 4e3e e692 1abe 4bac a6be
000000c0: 4fbd ebbd 3bae 8c3d 0c9b 46be acac 60be
000000d0: a48b e53e d1f1 09be 392d 223e 06a0 a93d
000000e0: 8dea 11bc 333c 06be a10f 3a3f 2dde 793e
000000f0: 1c17 f53e c598 d93d 4fc8 733e 5eff 8b3e
00000100: 9929 bebe 7207 eebd 7946 32bd 48d2 6e3e
00000110: c8b3 cbbd cbb1 043e a417 463e aafa 853b
00000120: 24d4 86be 1881 593e fd72 e13e 46d8 d03e
00000130: 1645 4a3d a751 a2bd 1bc6 a8bd 5b33 1dbe
00000140: 6070 c43d 2fbe 3d3c f7aa 083e c83a 18bd
00000150: 1f02 d1bc aafd 523d 435b 113e 2cda 3b3e
00000160: 1866 0cbe e222 1f3d 3e0c 0e3d 18b2 703d
00000170: 9a32 8f3b e99e bc3d 495f a6bd 40f6 e03d
00000180: a504 b9bd 36e4 01be cb85 853e 1fb2 a83e
00000190: 2f76 5fbf ce9d 3c3d f09f 613d d7fb 303e
000001a0: 6080 e13c 2b8f 00be 5963 aabd 8a82 b6be
000001b0: 0424 26be ef4d 6fbe 3549 893e 1821 06be
000001c0: 328c 953d cbfe 223e 0f69 31be 1eb6 3fbd
000001d0: ff1f 49be 5bdb c33d d5c3 b63e dd52 e03d
000001e0: b229 3cbe 7bfe 58bd ff69 ad3d 93a5 0d3d
000001f0: 6cb9 7dbe c34a 39be 1942 91be 1b43 6b3e
00000200: ba11 4cbd 5b5a 893d 3861 123e 7aea 9e3d
00000210: 1c63 6abe cc45 893d cb8a 69bc 5255 39be
00000220: e26b 34be fde5 4e3e 8c22 c7be 7705 233d
00000230: b557 da3e 51a4 07bf a54f 82bc c3d9 fbbd
00000240: a5fb 443e e52a 19be 9f77 62be 2c10 dcbd
00000250: 4925 2b3e 1527 573d e59d 5ebd 729a 953e
00000260: 221b a13d 07a5 953d 0368 e4bd 47cd bfbd
00000270: f9cd c13e c7b3 c83e 9a2d 413e 7853 dabd
00000280: b224 d03d a91f 053e 2b6c b1be e877 e03e
00000290: e100 64be 097b 243c e7e7 4b3e affe f5bc
000002a0: 274e c13d f7c9 eb3d 1d48 10be e769 a73e
000002b0: 9684 013e 990c 323e a750 00bd 7c6a 94be
000002c0: aa8e 52bd 9f69 133d d478 67be 9946 9f3c
000002d0: 8d8a 033c 1a52 a0bd ccd2 88bd 9825 6e3d
000002e0: fb6e 4e3d 0b57 38bd 4a4e 6ebe 573c ccbd
000002f0: bb71 e73d 6157 c33d 077e b63d f5ca 3d3d
00000300: df78 76bd b8e2 f33d a8a8 abbd 87cf 0bbe
00000310: a67b fdbe 7f06 a13e 24ba 023f a2e8 a4be
00000320: 6195 213e d083 d3bd 6262 1a3e 6f74 f63c
00000330: 14b8 4b3e 6a93 6cbe 066f fcbd 6649 9a3e
00000340: 8dad f43d ac98 0c3e 37af 573c d353 a83d
00000350: 2fa2 a9be 70e4 b0be 8a25 af3e 251b a03e
00000360: c3a6 223e 117f 853e eb47 b4be 40bd 86bd
00000370: 500d 4bbc 1f8b 393e 9c88 d73e 338d e23d
00000380: 6682 aebb 91aa c1be 4658 22bc 789e 503e
00000390: 18b7 2e3f 24ee 5c3c 14c2 af3c 5593 b4be
000003a0: 185c 18be 27f3 ebbd 361e a93e 586f d0be
000003b0: 8b62 1f3e c419 523b 5e6a 10bd 2753 3c3d
000003c0: 146b 4c3a 0172 ce3d 5a50 0cbe b7ec f03d
000003d0: 94a5 94bd e8a3 f9bc 7b98 bfbd ea81 cf3e
000003e0: d8ec 5fbc e5f4 1c3e 0663 b73d eb1d d0bc
000003f0: 419d 1dbe 892b 273e e983 b13e 8158 6dbf
0.55103904 0.3852694 0.09361278 -0.055029504 -0.0617273 -0.015802788 -0.003258094 -0.37381133
-0.062189043 -0.078987285 0.008418339 -0.06054983 -0.05460562 -0.010733191 0.15164545 -0.015952552
0.012749248 -0.12321545 -0.065609306 -0.06418214 -0.02062407 0.0654588 -0.22074595 -0.07098361
-0.008404676 0.0051330905 -0.005339319 0.00061329105 -0.1646229 -0.393844 -0.011897655 -0.009286208
0.04395586 -0.058328215 -0.0027946173 0.2959056 0.47196305 -0.12150305 -0.04002036 0.03059428
-0.069149554 0.040919133 0.22194244 -0.38430554 0.25071928 0.2017248 -0.150951 -0.32553324
-0.11510717 0.06869169 -0.19395083 -0.21940869 0.448331 -0.13471152 0.15837564 0.08282475
-0.008906019 -0.13108902 0.726801 0.2440116 0.47869194 0.106248416 0.2380688 0.27343267
-0.37141111 -0.11622514 -0.04352424 0.23322403 -0.099464 0.12958448 0.19344956 0.0040887194
-0.26333725 0.21240652 0.44033042 0.40790004 0.04938229 -0.0792573 -0.082409106 -0.15351622
0.09591746 0.011580988 0.13346468 -0.037165433 -0.025513707 0.051511444 0.1419497 0.18344945
-0.1371082 0.038851626 0.034679644 0.058763593 0.004370046 0.09209997 -0.08123643 0.109844685
-0.09034089 -0.12684712 0.26078638 0.32948396 -0.8728971 0.04604893 0.05508417 0.1728357
0.027527034 -0.12554614 -0.0831973 -0.35646468 -0.16224676 -0.23369573 0.26813665 -0.13098562
0.07302131 0.15917508 -0.17325233 -0.04680454 -0.19641112 0.09563323 0.35696283 0.10953305
-0.1837528 -0.052977066 0.08467483 0.034581732 -0.24777764 -0.18094926 -0.2837074 0.22974817
-0.049821593 0.06706687 0.14294899 0.077595666 -0.2288937 0.06702766 -0.014254282 -0.18098953
-0.17619279 0.20204921 -0.38893545 0.039800134 0.4264504 -0.529851 -0.015907118 -0.12297394
0.1923662 -0.14957769 -0.22115944 -0.10745272 0.16713442 0.052527506 -0.0543498 0.29219395
0.07866503 0.07306867 -0.11152651 -0.093653254 0.37852457 0.3919966 0.18865052 -0.10660452
0.10163249 0.13000359 -0.34652838 0.4384148 -0.2226596 0.0100390995 0.19912682 -0.03002867
0.094387345 0.11513131 -0.14090009 0.32697985 0.12648234 0.17387618 -0.031326916 -0.2898749
-0.051405586 0.0359894 -0.22604686 0.019442843 0.008028639 -0.0782816 -0.06680831 0.05814132
0.050398808 -0.045004886 -0.23272052 -0.099724464 0.11300989 0.095381506 0.089107566 0.046336133
-0.060173865 0.119084775 -0.08381778 -0.13653384 -0.495084 0.3145027 0.5106528 -0.32208735
0.1577964 -0.103278756 0.15076593 0.030084817 0.19894439 -0.23103109 -0.123258635 0.30134124
0.11947165 0.13730115 0.013164333 0.08219113 -0.3313155 -0.34549284 0.34208328 0.3127071
0.15883927 0.26073506 -0.3521112 -0.06579065 -0.012393311 0.18119477 0.42096412 0.11062088
-0.0053256033 -0.37825444 -0.009908741 0.20372951 0.6824813 0.0134845115 0.021454848 -0.35268655
-0.14878881 -0.11520987 0.33030862 -0.4070995 0.15564935 0.0032058815 -0.03525769 0.045977738
0.00077979383 0.10080338 -0.13702527 0.117639 -0.07258144 -0.030473664 -0.09355255 0.40528804
-0.013667308 0.15327795 0.08954434 -0.025404891 -0.15392019 0.16325201 0.34670952 -0.9271317

decoder.0.bias f4 [16]
00000000: a616 ea3d 520c ed3c ae65 cf3e 243d c93d
00000010: 33ff 683c 1e3b 423e 2e8e 0c3e f1aa 8e3e
00000020: a159 893e b54b a03e 2845 e63d 02d8 063e
00000030: 566b 7cbd bbc7 8d3e c223 04be ee0a cd3d
0.11430101 0.028936539 0.40507263 0.09826115 0.0142210005 0.18967864 0.13726112 0.27864793
0.26826194 0.3130776 0.11243659 0.13168338 -0.0616258 0.27691445 -0.12904266 0.1001185

decoder.2.weight f4 [16, 8, 3, 3]
00000000: 1ff9 0e3b 4af9 f73d 8489 713b 5fdc df3b
00000010: 14a0 c93b 101a 8bbf 81ba 69bc b1c4 003f
00000020: 7b69 00bd 6825 6e3e 9881 14be bd7e 363c
00000030: 631a 17bf 63f3 18bf 0403 d9be e37b 213f
00000040: d7be 1fbf b679 dcbe d0fe 953e 97c7 04be
00000050: 6edd 13bd b643 61be 46f4 cabe 6b39 b4be
00000060: cb9b ee3e 892a d6be 750e c8be c8a8 9dbd
00000070: 1660 05be 89c2 d1be ef12 c4b5 6023 7d3e
00000080: a299 e0bc 7dab 13bf fa99 05bf b5bb 4abd
00000090: 5ada 85be 22e4 52be 5625 91be 22fc 41bc
000000a0: 3dc5 a7bf b55a a6be 44dd dabe 8a67 e63e
000000b0: f947 2fbe 0ac9 7640 08af 0b3e 8a38 003f
000000c0: 08c3 b5bd cd1b 393e 9b28 e53d 322c cdbe
000000d0: 7174 ce3d fe10 fcbc c06e 1a40 8872 1bbf
000000e0: 8ae1 21c0 6685 023e e32a faba e79d 6fbd
000000f0: 516e 58c0 81e6 213f 8b6d 33bf 3a0c a6bc
00000100: 9fc7 383e ad5a 68be 7496 943d 3068 f23d
00000110: cd48 3cbe a601 0cbd 3aa5 78be 9ede 57be
00000120: e104 d6bd d71a 73be 688d 1c3d da7d 50bd
00000130: c0e1 48be dddd c93e fd0d 67be 17fb 16bf
00000140: 9fca 033e fcb0 7abd 8c10 a03c b93b 043d
00000150: cb53 2dbe 75eb 523d 27ee 13bb 4495 7cbd
00000160: a78b 4d3c 8f46 673d 6bf7 c5bd e22d a3ba
00000170: c495 433d 1ef5 c7bd cb29 0abd dce8 5d3d
00000180: 1088 46bd 360d 84b9 c3d0 113e e9ba bbbe
00000190: bedd 3f3e 5534 8d3d 2823 0ebe d393 5abe
000001a0: 28dc 753f 410b 253f 0dc4 e73d c7e4 adbe
000001b0: a07c c8bc 8e54 98bd afa2 e7bc 7260 7cbd
000001c0: b226 9c3d d3be 453e be60 273d 523b 24be
000001d0: a26c a9bc 5b78 dabc fc0d 81bd 79f6 0cbc
000001e0: 3e90 b93d c4a1 c7bd ad2f 69bc 6373 f5bd
000001f0: 302d 493d 9732 213e a486 16bf 6916 91be
00000200: 4e58 7fbf 95de 3bbb 32a2 f7bd 7266 093e
00000210: 7f62 c9bf ce09 2abd c792 4e3f 96ac 12bf
00000220: ecf8 d3bb c0dd c0be e232 9cbd ea09 933d
00000230: 2363 4d3e e83c ccbe f923 b8bb 0f53 2b3e
00000240: e2db 1fbe 981d 74bd 0f46 e83d 7716 9ebd
00000250: a276 d43d 2182 c63e 2e35 cbbd 7272 9cbe
00000260: c233 c93d 83c9 3d3d a64d 153d 2e20 e4bc
00000270: c2ab 053f e01d 193f 5b31 8f3e a29a 243e
00000280: aeaa e13e d5cd 7d3e 4f4b ac3d f6bb 7a3d
00000290: 5074 873c 96c0 0a3f dd72 403f 3418 da3e
000002a0: 2dc9 933e 2ea9 023f 49e0 c13e 189d e7bd
000002b0: 4989 123f 6ea4 2cbc 3391 0abe c483 773e
000002c0: 2f46 b23e 264d db3e 7043 293f c195 273d
000002d0: a515 003e 7f9d 943e 4d1a 393e 663a a83d
000002e0: db9e b73e 2d03 edbd 19ee afbc 29ef 73be
000002f0: 6f3c 8ebc 9c1e e9c0 97f1 78c0 52fa a0bf
00000300: 270a dcbc b0ca 43be c3dc 6abd ca97 463e
00000310: a62d 1b3e 3560 68be d90a 75bf 993c 183e
00000320: 936e d9bd 10b6 6ebe 3ec7 023e 1fed 413e
00000330: 55a7 003d 1e7e 083e 89cb c43e 3ede acbd
00000340: e702 29bf 95d9 943e b8cd abbe b54a 18bf
00000350: f91e 173e 8db3 dabd 787f a03c 60c5 0b3e
00000360: 067d 383e 91b2 e1bc 1297 e7bd 23bd f8be
00000370: d123 8cbe 1da7 21bf e3c1 30bf e833 0abf
00000380: 9d7a 00bd 48b5 1dbe 0778 363e 833c c53c
00000390: ee4e 313e cf66 bbbd 758b 67bd 5a8d 433c
000003a0: 2442 0d3d 5647 823c 9ce2 98bd 33f4 593d
000003b0: 8b8e ad3d 6522 fe3d 21f9 dcbd 58e5 8abd
000003c0: 711d 0fbd 7716 d4bc 3291 963c f13d 02bf
000003d0: 6af1 d3bd 6201 d93d cb01 8abe 570e 893e
000003e0: c043 75b9 6346 d13e 0151 123f faed 47bc
000003f0: a5af 09bd 320b 593b d3ce 103b 7c54 f43d
0.0021815968 0.12108095 0.0036855647 0.00683169 0.006153116 -1.0867329 -0.014265657 0.5030013
-0.031350594 0.23256457 -0.14502561 0.011138615 -0.5902464 -0.5974638 -0.42385113 0.6307966
-0.62400573 -0.43061608 0.2929597 -0.12966762 -0.036099844 -0.21998486 -0.3963949 -0.35200056
0.46603236 -0.41829327 -0.3907353 -0.07698208 -0.13024935 -0.4096873 -1.4608648e-06 0.24720526
-0.027417008 -0.57683545 -0.52188075 -0.049495418 -0.26143152 -0.20594838 -0.28348798 -0.011839898
-1.3107067 -0.3249108 -0.42746937 0.4500087 -0.17117299 3.8560205 0.13640988 0.5008627
-0.0887509 0.18077011 0.111893855 -0.4007278 0.10080803 -0.030769821 2.4130096 -0.60721636
-2.5293908 0.127462 -0.0019086268 -0.058500197 -3.3817332 0.63242346 -0.70089024 -0.020269502
0.180449 -0.2269084 0.07255259 0.118362784 -0.18387146 -0.03418126 -0.24281779 -0.21081015
-0.10450149 -0.23740707 0.038220793 -0.05090127 -0.19617367 0.3942708 -0.2256393 -0.5897688
0.12870263 -0.06120394 0.01953914 0.03228352 -0.16926496 0.05149408 -0.002257237 -0.06166579
0.012545503 0.056463774 -0.09666332 -0.0012449587 0.04775025 -0.09763549 -0.033731263 0.05417715
-0.048469603 -0.00025186845 0.14239793 -0.3666604 0.18736932 0.06894747 -0.13880599 -0.21345453
0.96039057 0.644703 0.113166906 -0.33963606 -0.024473488 -0.074380025 -0.028275816 -0.061615415
0.07624568 0.19311075 0.040863745 -0.16038254 -0.020681683 -0.026668718 -0.063014954 -0.008603686
0.09060715 -0.09747651 -0.014232558 -0.11984899 0.04911536 0.15741955 -0.58799195 -0.2833741
-0.9974412 -0.0028666605 -0.12091483 0.13417986 -1.5733184 -0.041513257 0.80692714 -0.57294595
-0.006468883 -0.37669182 -0.076268926 0.07179625 0.20057349 -0.39890218 -0.0056195226 0.16730903
-0.15611222 -0.059598535 0.113414876 -0.077191286 0.1037419 0.38771155 -0.099222526 -0.30556065
0.09824325 0.046334755 0.036451004 -0.027847376 0.52215207 0.5981121 0.27967343 0.16074613
0.4407553 0.2478555 0.084128015 0.06121441 0.016534954 0.5420011 0.7517527 0.4259659
0.28864422 0.510394 0.37866428 -0.1130926 0.5724073 -0.01053725 -0.13531952 0.24171358
0.3481917 0.42832297 0.66118526 0.0409143 0.12508257 0.2902641 0.18076439 0.082142636
0.35863385 -0.11572871 -0.021475838 -0.23821701 -0.017362801 -7.2849865 -3.8897455 -1.2576392
-0.02686031 -0.19120288 -0.05733944 0.1939384 0.15154132 -0.2269295 -0.9571968 0.14866866
-0.106167935 -0.23311639 0.12771317 0.18938111 0.03140958 0.1332936 0.38436535 -0.08440827
-0.66020054 0.29072252 -0.33555388 -0.59488994 0.14757909 -0.10678778 0.019592032 0.13649511
0.18016443 -0.027550967 -0.11308111 -0.485818 -0.27371076 -0.6314562 -0.6904585 -0.5398545
-0.031366933 -0.15401185 0.17819224 0.024076706 0.17315266 -0.091504686 -0.05652948 0.011935556
0.034486905 0.015903156 -0.07465097 0.053211402 0.084744535 0.12408904 -0.10789705 -0.06782025
-0.034940187 -0.025889618 0.018379781 -0.50875765 -0.103487805 0.10595967 -0.26954493 0.26768753
-0.0002339026 0.40874013 0.5715485 -0.012202734 -0.033614773 0.0033118245 0.0022095933 0.119301766

decoder.2.bias f4 [8]
00000000: f77d 4e3d b545 f93d 30b5 4abc 0b09 cf3d
00000010: 9912 1ebe 5486 9fbc 0dea 883d d255 103e
0.0504131 0.12171499 -0.0123723 0.10109147 -0.15436782 -0.019473232 0.06685267 0.14095238

decoder.4.weight f4 [8, 3, 3, 3]
00000000: 78b4 78be fae4 b7be ca03 d2bd c828 57bc
00000010: ffa7 a43e 92ee 3a3f 809e 59be b7e4 623e
00000020: bcbb 1d3f ed5d 82be 974f babe 182a e9bd
00000030: 7f9d d2bd 4271 743e b4a3 253f 5629 9cbe
00000040: b427 013e d098 033f d3b1 a2be bf13 dabe
00000050: c375 46be 0ec4 d9bd 9d11 673e 72d0 163f
00000060: 9eaf 96be 025e 133e 1da1 fa3e a727 2ebb
00000070: 300d bc3d 593e c03d 7b15 3ebd 2a6d 963e
00000080: 63f8 ae3e d21d acbd 101a 413e c6e5 903e
00000090: ae07 1fbd c0d6 963c a7d5 613d 519f fbbd
000000a0: 146e 073e 4d27 823e 46c2 ffbd d067 d83d
000000b0: f7c0 6e3e aa0d 82bd 073f 0abd 2e6c e73c
000000c0: de12 3abe bf05 c73b 46c6 3c3e e04c 21be
000000d0: cee6 193d 273d 403e 1098 053e 68a4 593e
000000e0: 3c31 b63d 93f0 9a3e 7de9 a33e d8f2 803c
000000f0: ab3a 4c3e 2b3d e13d 6dfe d2bd bccf 333e
00000100: 642b 983e 422a 033e 2d22 cc3e 84e3 ff3e
00000110: 3914 d43d 6b7e 803e d8fd 513e 500d 56bd
00000120: 1904 4e3e 18dc ae3e ddde 133e c708 eb3e
00000130: 9968 1a3f 2723 183e 8e23 923e 07d7 853e
00000140: 8a71 bebc 8b83 323e a7d7 ed3e fe9b 9b3e
00000150: 7d1f d83e 85b5 683f 095a fa3e c33e ea3e
00000160: 15f2 8c3f 6c47 243f 5df5 373e 8100 ed3e
00000170: 289c 973e 5de6 dd3e a255 693f 461e f63e
00000180: 14ed e63e 2ab0 8a3f beff 213f 0577 433e
00000190: 89f9 ea3e da84 903e b9e4 dd3e 8b18 613f
000001a0: cd7a e53e 5c05 e03e 419b 833f a89d 173f
000001b0: 046f aa3d 1877 aabe efbb b4be b9b2 a93e
000001c0: 6643 dc3d 7c6f 9ebe 3895 983d 9932 9f3e
000001d0: 7ca5 4d3e bb6d a63d dacc b9be c41f c5be
000001e0: 5f3e a53e 2885 ab3d 246c aebe 0763 5d3d
000001f0: 65d4 903e 4d81 313e d4c7 f33d d16f a8be
00000200: 833c b0be 3d43 ba3e ddc7 143e b93a 89be
00000210: 31b4 ba3d 8e5e aa3e bf12 723e d214 783e
00000220: 79da af3e ed1c 0b3e 2e75 0f38 f633 91bc
00000230: fdd2 81bb 64e2 1abe 0af6 60be ede9 c3bd
00000240: b7f8 673e cbba a13e b949 fd3d 98b2 1cbd
00000250: 4a94 89bd 5876 a2bc 4842 2fbe 150b 78be
00000260: 4b82 d3bd 1d5d 653e 614d 9b3e 0a32 f03d
00000270: 8f54 7dbd 426c c3bd bd67 d7bc 2cab 3bbe
00000280: deac 81be 0dd8 d8bd 3388 92bd 0406 69be
00000290: 318b 43be 4b21 fc3d bcdc dc3d 274c debc
000002a0: 4dde 4d3e 9d37 7a3e e6d1 7a3d 6caa 93bd
000002b0: 4baf 76be 6f62 4abe 4521 f93d 0631 a83d
000002c0: 4ac7 43bd 8d43 4b3e ae9f 643e cf88 4c3d
000002d0: 4cd0 a2bd 6aab 83be 26d9 4fbe 50cf ee3d
000002e0: b915 603d b037 8dbd d0d7 453e c88d 4c3e
000002f0: ece5 163d 8180 e13e 438f 4f3f 9b1d 663f
00000300: d8cd 933e 53fe 2f3f f4ce 7e3f 6298 2a3e
00000310: 2f91 4a3e 8692 9b3e 2581 ee3e a239 553f
00000320: 2481 6f3f 81e7 ae3e 5844 393f ae2d 853f
00000330: 25d3 583e 40f9 6f3e c781 ad3e 60d9 f63e
00000340: f133 523f b206 6f3f 8f41 ba3e af44 373f
00000350: 6068 853f 221e 823e 1989 843e ef9b bb3e
-0.24287593 -0.35916883 -0.10254629 -0.013132282 0.3215942 0.7302028 -0.21251869 0.2215756
0.61614585 -0.25462285 -0.36388847 -0.11384982 -0.10283946 0.2387133 0.64702916 -0.30500287
0.12612802 0.5140505 -0.31776294 -0.4259319 -0.1938086 -0.106330976 0.22565313 0.5891181
-0.2943086 0.1439133 0.48951045 -0.0026573928 0.09182203 0.09386892 -0.046407204 0.2938016
0.3417388 -0.08404125 0.18857598 0.28300303 -0.038825683 0.018412948 0.055135395 -0.122862466
0.13225585 0.2542061 -0.124882266 0.10566676 0.23315798 -0.063502625 -0.033751514 0.028249826
-0.1817126 0.006073683 0.1843501 -0.15751982 0.037573628 0.18773328 0.13046288 0.21254122
0.088961095 0.3026167 0.32014075 0.015740797 0.19944255 0.10997995 -0.10302434 0.17559713
0.29720604 0.12809089 0.39869824 0.49978268 0.1035542 0.2509645 0.2050699 -0.05225879
0.2011875 0.34152293 0.14440484 0.45905134 0.60315853 0.1485716 0.2854275 0.26140615
-0.023247499 0.17432992 0.46453592 0.3039245 0.42211524 0.90901977 0.48896816 0.45751008
1.1011378 0.6417148 0.17964692 0.46289447 0.29611325 0.43339816 0.9114629 0.48069972
0.4510275 1.0835011 0.63280857 0.19088371 0.45893505 0.28226358 0.43338564 0.87928075
0.44820252 0.4375409 1.0281755 0.5922494 0.08321956 -0.33293986 -0.35299632 0.33144167
0.10755043 -0.3094443 0.07450336 0.3109329 0.20082659 0.08126398 -0.36289102 -0.38500798
0.32274148 0.08375007 -0.3406688 0.054049518 0.28287044 0.1733448 0.119033486 -0.3289781
-0.34421167 0.36379424 0.14529367 -0.26802614 0.091164 0.33275265 0.23639964 0.24226692
0.3434637 0.13585253 3.420299e-05 -0.017724972 -0.0039619193 -0.15125424 -0.21968856 -0.09566102
0.22653471 0.31587824 0.12367577 -0.038256258 -0.06717737 -0.019831821 -0.17115128 -0.24222977
-0.10327586 0.22398801 0.30332473 0.11728294 -0.06184822 -0.09542133 -0.026294583 -0.18327016
-0.253272 -0.105880834 -0.07154884 -0.22756201 -0.19096066 0.12311038 0.10784289 -0.027135922
0.20104332 0.24435277 0.06123533 -0.0721024 -0.24090306 -0.19764112 0.12164549 0.082124755
-0.04779748 0.19849987 0.22326538 0.04993516 -0.07949886 -0.25716716 -0.2029768 0.116606355
0.054708216 -0.06895387 0.19320607 0.1997596 0.036840364 0.44043353 0.81077975 0.89888924
0.28867984 0.6874744 0.99534535 0.16659692 0.19781946 0.30385226 0.46582904 0.83291066
0.9355643 0.34160998 0.7236991 1.0404565 0.21174295 0.23434925 0.33888075 0.4821272
0.82110506 0.9336959 0.36378142 0.7158918 1.0422478 0.25413615 0.25885847 0.36642405

decoder.4.bias f4 [3]
00000000: 5401 e9bd 0bda 9ebd 9fda 4bbd
-0.113772064 -0.07756432 -0.04976904
